data.pth (torch, 10090 bytes, 6 tensors)

l1.weight f4 [8, 162]
000000 df 22 ba 3d 66 37 7e 3e 26 2e 2e 3e b1 03 e7 bd
       0.090886824 0.2482582 0.17009792 -0.11280001
000010 9b 8d 94 3e f6 96 04 3e bb ef 12 be df e7 70 3d
       0.29014286 0.12948212 -0.14349262 0.05881488
000020 85 7b 92 3d 4b 9d 5c be 4c 49 cd bd 09 f7 01 3e
       0.07152466 -0.21544378 -0.10023746 0.12691893
000030 6d 07 bf 3d cc bb 78 3e ff e4 70 bd 6b 0c 83 bd
       0.09327588 0.24290389 -0.058812138 -0.06398853
000040 6c cb 95 3c 4c 12 28 3e 87 01 b7 bd a8 69 64 3e
       0.018285476 0.1641323 -0.08935838 0.2230593
000050 07 d6 78 3d c4 cf 97 bd b5 75 92 bd f8 75 0f 3e
       0.060750987 -0.07412675 -0.07151357 0.14009845
000060 28 40 8a 3e 37 b5 1f 3d 20 0f 24 3e 6e 27 87 bd
       0.27002072 0.03899118 0.16021395 -0.065993175
000070 09 5a a0 3e 24 2f 90 3d b7 f5 ea 3c 7c 36 18 3d
       0.3131869 0.07040241 0.02868162 0.037161335
000080 58 c1 52 bd 47 94 6f 3e c5 54 e0 3d f4 07 c7 bd
       -0.05145392 0.23396407 0.109536685 -0.09718314
000090 14 a0 89 bd 7e a3 56 be 03 6f 46 bd da 18 79 bd
       -0.067199856 -0.20960805 -0.048445713 -0.060814716
0000a0 d8 ab 65 3e 94 60 e8 3d 94 97 9a bd 27 dc a6 bd
       0.22428834 0.11346546 -0.075484425 -0.081474595
0000b0 36 bf 6c 3e d0 1c f1 bd e8 34 8c 3e 38 f4 c8 3e
       0.23119816 -0.11773074 0.27384114 0.39248824
0000c0 8e 46 9f 3d 7b a3 0e 3e 2a 73 b1 3d 28 9a fe 3d
       0.07777129 0.1392955 0.08664544 0.12431747
0000d0 1b be ae bc 43 7d 6d bd 22 26 cd bd c9 1e b1 bd
       -0.021330884 -0.057980787 -0.10017039 -0.0864845
0000e0 92 3d 52 3e a1 19 99 bd 10 90 43 bd bc 0e 77 3e
       0.205313 -0.074755915 -0.04774481 0.24126714
0000f0 98 33 fe bd 1e d9 88 3e be 0d 35 3e 02 55 f9 3c
       -0.124121845 0.26728147 0.17681023 0.030436043
000100 ae 2d 1a bd 08 5e 43 3e 51 00 7d bc a2 fa cd 3d
       -0.03764122 0.19078839 -0.01544197 0.1005757
000110 87 af 92 3e 99 af eb bd b6 87 01 be e8 4e e2 3e
       0.28649542 -0.11508102 -0.12649426 0.44200826
000120 72 29 2a be c9 40 bb 3d a9 46 2d 3e cd d9 84 3e
       -0.16617373 0.09143216 0.16921486 0.2594742
000130 a8 0d 82 bd e4 d5 56 3e 3a 4a d6 3e 2f b5 9e bd
       -0.06350261 0.2098003 0.41853505 -0.07749402
000140 83 2a 56 3e 27 68 c4 bd 12 f8 48 3e fc d3 a5 bd
       0.20914654 -0.09590178 0.19625881 -0.080970734
000150 58 b3 a6 3e 0d b7 bb bd 37 b4 35 3e 9c 88 98 bd
       0.32558703 -0.091657735 0.17744528 -0.07447931
000160 f7 81 86 3d 96 63 17 bd 17 7d 3e be c6 4c a5 bd
       0.065677576 -0.036960207 -0.18602405 -0.08071284
000170 67 74 de bd 92 06 45 3d 40 01 82 3d e2 64 e0 bc
       -0.10862046 0.04810197 0.06347895 -0.027391855
000180 a9 d2 97 bc c1 8b 6b 3e d3 77 5d 3e e6 49 f1 3d
       -0.018533068 0.2300253 0.2162774 0.11781673
000190 20 f5 b0 3d ae 67 5a ba 56 14 d1 bd 13 d9 f8 3d
       0.08640504 -0.00083314895 -0.10208957 0.121507786
0001a0 5f 00 bd bd 70 1c 06 3d a9 98 fd bd 08 3b 11 3e
       -0.092285864 0.032741964 -0.12382633 0.14182675
0001b0 b9 d6 56 3e 58 e7 e1 bd e3 ad f8 3d 44 22 2e 3e
       0.20980348 -0.110304534 0.12142541 0.17005259
0001c0 93 3c 0f 3e 7f d1 85 3e e9 04 ad bd 4f d9 89 3d
       0.13987951 0.26136395 -0.08448202 0.067309014
0001d0 2d bc 2b be 7f 2b 13 bd 6f 30 56 3e 1e 7f 72 3e
       -0.16771002 -0.035930153 0.20916913 0.23681304
0001e0 81 db 86 bd 39 f4 90 bd 4c b9 ab bd c1 8c e0 3d
       -0.06584836 -0.07077832 -0.08384952 0.10964347
0001f0 a1 89 7f bd 76 de 22 be b4 59 96 3e 3f b1 09 3d
       -0.062387113 -0.15905175 0.29365313 0.0336163
000200 af 8a b5 3b 9d 24 45 3d 8d 27 03 3e b0 f9 1d 3e
       0.005540214 0.04813062 0.12808056 0.1542728
000210 0a 23 6e bd f8 16 96 bd 7b 5e e8 3d e0 e7 48 3e
       -0.058138885 -0.073286 0.11346146 0.19619703
000220 c6 3c db bd 25 b8 cc 3d 4c 6d 47 bd c9 98 9d 3d
       -0.10704951 0.0999606 -0.048688218 0.07695157
000230 2e 57 15 be 7e de 9e 3e 52 70 77 3d 27 2c 95 bd
       -0.14584038 0.31029123 0.06040985 -0.07283812
000240 53 90 cd 3d 2c 8e e1 3d 82 cb 0c bd 21 f5 63 3d
       0.10037293 0.11013445 -0.034373768 0.055653695
000250 83 39 71 3e 47 01 b1 3e 97 66 9b 3c 4f 64 c3 3c
       0.23557095 0.34571287 0.018969817 0.023851542
000260 68 fc a4 3e 22 db a3 3d 91 cb bb bd b3 ae 83 3e
       0.3222382 0.08000781 -0.091696866 0.25719222
000270 a4 45 98 3e 93 f8 36 bc 53 41 67 3e 6b b4 c8 bd
       0.29740632 -0.011167663 0.22583513 -0.09800037
000280 d2 be 8c bd 8d f3 67 3d c1 31 83 3d 0a f0 4c 3c
       -0.068723336 0.056628752 0.06405974 0.012508402
000290 19 ae 31 bd ce e8 20 3d e7 af 26 be 48 6e 3c bd
       -0.043378923 0.03928452 -0.16278039 -0.04600361
0002a0 35 0f e4 3c 39 2e 5a 3e 94 21 b2 3e b2 ab 4d bd
       0.027839283 0.21306695 0.34791243 -0.05021257
0002b0 dd 21 c1 bc f6 55 7e 3d 25 58 31 3e 44 82 88 bd
       -0.023575718 0.062093697 0.1731878 -0.06665471
0002c0 09 17 16 3e 79 c0 23 3d 98 34 82 bd ad 56 dd bc
       0.14657225 0.039978478 -0.06357688 -0.02701887
0002d0 99 ba f7 3e b3 37 75 bd a5 f9 18 bb f2 0b 45 bd
       0.4838455 -0.059867572 -0.002334216 -0.048107095
0002e0 0c 5a 33 3c b4 40 02 bd 33 d6 ad bd 51 6c 09 3e
       0.010946762 -0.031799987 -0.08488121 0.13420226
0002f0 66 35 9e bd 46 ff 38 3d 5a fd 5b be 97 d9 63 3e
       -0.07725029 0.045165323 -0.21483365 0.22250973
000300 67 70 37 bd 7c a1 8d bd 45 05 25 3c 8b 20 80 3c
       -0.04478493 -0.06915566 0.010072057 0.015640518
000310 da 30 15 bd 7a d5 c7 3d 4d 99 9d bc e5 7a 87 3c
       -0.03642354 0.09757514 -0.019238139 0.016538093
000320 ff d2 b1 bd 09 ee 24 3d 89 8b 5e 3d a9 7f 8e bd
       -0.086828224 0.04026607 0.05433229 -0.06957943
000330 d1 12 cf 3e 98 3a c8 3e 67 fc 77 bc 74 aa 8c 3d
       0.40444043 0.39107203 -0.015135861 0.06868449
000340 2b 1c 82 3c 1f 6d cb bd 8d b5 8f 3e a3 86 92 3c
       0.015882572 -0.099329226 0.280682 0.017886465
000350 7a 26 88 3e 7a 85 9e 3c 92 00 7b bc 90 29 b5 bc
       0.26591855 0.019350756 -0.01531996 -0.022114545
000360 b0 f5 98 3b 4b 3b 4b 3c 19 87 05 be 8b 76 4a 3e
       0.00466796 0.012404273 -0.13039817 0.19771783
000370 f8 54 0d be 80 09 09 3d f3 20 bd 3d af 64 f2 bc
       -0.13801944 0.033456326 0.092348 -0.029589025
000380 b4 05 e4 bc 31 56 4b bd d4 ce de bc ea 7d b9 3c
       -0.02783475 -0.049642745 -0.027198233 0.022643048
000390 30 09 88 3d 1f ed 2e bc 8c b3 5a 3e 65 0e 44 3e
       0.066423774 -0.010676651 0.21357554 0.19146116
0003a0 f9 46 dc 3d 95 86 62 be 49 89 8c bd 7f 9b 61 3c
       0.107557245 -0.22121651 -0.068621226 0.013769983
0003b0 a5 4b 1a be cc 05 0b be cb ad 2c 3d aa 60 95 bd
       -0.15067919 -0.1357643 0.04215793 -0.07293828
0003c0 ae 42 da bd 63 9c af 3e 07 67 54 be 89 e5 7a bc
       -0.106572494 0.34299 -0.20742427 -0.0153135145
0003d0 b3 b3 c3 bc 1c ce 0e bd 0d 65 9f bd 28 e6 0a 3b
       -0.023889398 -0.03486453 -0.07782946 0.0021194313
0003e0 89 74 9a 3d 01 7c 91 bd 74 b4 88 3c a6 a9 a6 bd
       0.075417586 -0.0710373 0.01668761 -0.081378266
0003f0 91 00 9b bb 5a d0 fb bd 18 9f f4 bd cf 5c 38 3e
       -0.004730292 -0.12295599 -0.11944407 0.18004154

l1.bias f4 [8]
000000 81 bc 57 3e 95 a9 c4 3e 1a ba 8c 3e b6 34 e2 3e
       0.21068002 0.3841063 0.27485734 0.4418084
000010 f4 a3 ba 3e 28 17 b8 3e 65 e3 77 3e c8 5b 89 3e
       0.3645321 0.35955167 0.24207838 0.26827836

l2.weight f4 [8, 8]
000000 25 6a e8 3e 5a f0 81 bf af 48 ca be 84 6f 31 3f
       0.45393482 -1.0151474 -0.39508578 0.69310784
000010 9c f2 8d 3e 56 d3 95 3e 01 40 eb bd f9 9e 23 bf
       0.2772416 0.292628 -0.11486817 -0.6391445
000020 1b 30 20 3d 85 fc 44 3c b2 4c 0e 3f 20 3b 2d 3f
       0.039108377 0.012023096 0.5558578 0.6766834
000030 aa d8 8b bd b4 ee 4d bf 70 3b 4f bd 14 21 21 3e
       -0.06828435 -0.8044236 -0.050593793 0.15735275
000040 43 98 52 3f df 0d 5d bf 90 dc 28 3f 65 6a f6 3e
       0.8226358 -0.8634929 0.6596155 0.48128048
000050 1b 86 2e 3e 8b 81 a3 3e 21 fe 0a 3f d7 33 8e be
       0.17043345 0.3193477 0.5429402 -0.27773926
000060 47 f7 d5 3d 8b b1 7e be 6f 12 54 3f d9 5e 22 bc
       0.10447555 -0.24872415 0.8284063 -0.009910309
000070 39 49 55 3f cc cb 96 be 40 8b 58 3f 3d 77 ec 3e
       0.83314854 -0.2945236 0.8458748 0.46184722
000080 2b dd 81 3f 09 4c 26 3f 9e 45 8c 3f 57 74 24 bd
       1.014562 0.6495977 1.0958745 -0.040150013
000090 df f4 83 3e db fe 1f 3f 78 7f 0f bf e4 40 74 3f
       0.2577276 0.62498254 -0.56053877 0.95411515
0000a0 2b 89 7c bf 81 37 9d be a0 5f 4c bf 20 87 f9 3e
       -0.986468 -0.3070641 -0.7983341 0.48735905
0000b0 cd 06 e2 3e bb 72 9f 3d 7f 84 d7 3e cf 88 91 be
       0.44145814 0.07785555 0.42093274 -0.2842469
0000c0 6f cb b9 3d 21 58 c0 3d 43 10 1f bf 47 9b 4d 3f
       0.09072005 0.09391809 -0.6213419 0.8031506
0000d0 4f 4b 3a be 20 b6 99 3c ac 27 11 bf 13 2f 17 bf
       -0.1819279 0.018763602 -0.5670116 -0.59056205
0000e0 dc 24 27 bf 83 eb 5b 3f b1 07 c1 be ef fc 07 bd
       -0.6529062 0.8590624 -0.3770118 -0.0332002
0000f0 96 cf 5c 3f e4 ab 6c 3f 61 5f 90 be e9 01 63 bd
       0.8625425 0.92449784 -0.28197768 -0.055421744

l2.bias f4 [8]
000000 82 5b 1f 3d 5c 22 03 3f e4 7b 4d 3c 74 e5 2b 3d
       0.038905628 0.51224303 0.012541745 0.04196687
000010 54 7d 7f be 7d f4 d6 3e b1 4e 2f 3f ff 0a 1d 3f
       -0.24950153 0.41983405 0.6847945 0.61344904

l3.weight f4 [5, 8]
000000 bd d7 3f 3d 30 90 31 bf 65 c9 e4 3d 43 84 78 3e
       0.046836603 -0.6936064 0.111712255 0.24269204
000010 5e 66 3f bf e0 5f d7 3e 7e 6f 26 bf c9 00 50 3e
       -0.74765575 0.42065334 -0.65013874 0.203128
000020 75 94 2e 3f 89 ef 3b bf a5 0c 71 3e 81 43 75 bf
       0.6819528 -0.73412377 0.2353998 -0.9580613
000030 04 46 6f 3e 10 04 23 bf 70 f1 c5 3e 5b 75 a6 3d
       0.23366553 -0.63678074 0.38660765 0.081278525
000040 4b 1b e9 be da 5f 51 3f 13 85 e7 be f7 77 48 bf
       -0.45528635 0.8178688 -0.45218715 -0.7830805
000050 b5 f2 37 bf 40 97 a4 3e ac 70 36 3f ad 08 ad 3e
       -0.71854717 0.32146645 0.71265674 0.33795682
000060 73 16 50 bf 6d 49 37 bf 19 de 1d bf 14 75 58 be
       -0.81284255 -0.71596414 -0.6166702 -0.21138412
000070 51 54 35 3f cb d7 2b bf 69 90 e6 be 39 cc 1f 3f
       0.7083178 -0.6712615 -0.4503205 0.62420994
000080 d7 17 49 bf ef 13 09 3f 36 0b 85 3e f0 ee 07 3f
       -0.78552 0.5354604 0.25985116 0.53098965
000090 c9 93 6d 3e a2 c0 a5 be 96 07 12 bf d1 37 56 bf
       0.23200907 -0.3237353 -0.57042825 -0.8367892

l3.bias f4 [5]
000000 a3 46 44 be 22 1e b5 be bd 41 9c 3e d3 72 85 3e
       -0.19167571 -0.35374552 0.30518904 0.26064166
000010 f2 a3 2c 3e
       0.16859415
