data.pth (torch, 10090 bytes, 6 tensors)

l1.weight f4 [8, 161]
0.28124523 0.32910296 -0.06806087 0.33273318 0.13276774 -0.0050311703 -0.03911576 -0.049374152
-0.12799634 -0.015764562 0.17820492 -0.061572865 0.19386439 0.09461006 0.026373044 0.12231807
0.18055758 -0.21734382 0.24869545 0.15955 0.20763282 0.13478237 0.08346213 0.19862701
-0.10915087 0.4700733 0.0019329035 -0.15827744 0.094403625 0.1629447 0.2955713 0.12637863
0.24594645 0.14034247 -0.1025387 0.20811038 -0.072526634 0.21990877 0.062555395 0.13227342
0.2887337 -0.17712623 -0.17808275 0.21883935 0.07739942 0.15583463 0.31617606 -0.13440706
0.18172386 -0.15054695 0.19852284 0.06859324 0.2390607 0.2580153 0.31490505 -0.036505118
0.12638383 0.20990394 0.20818093 0.057853736 0.28425965 0.29067072 0.20655812 0.056975257
0.1150346 0.08965415 0.23758766 0.22436471 -0.0731207 -0.072252244 0.32873863 0.17596745
0.10544072 0.42785028 -0.18613797 0.13213208 0.15062413 0.35534418 -0.21559855 0.40156972
0.14588308 0.22348586 0.12013476 0.2839951 0.11175564 0.24630652 0.24233595 0.0034436653
0.1535019 0.056061503 0.35013905 0.06138014 -0.04439178 0.28868788 0.24292135 -0.1853841
-0.32131013 -0.10155971 0.17975387 0.102688916 0.21033114 -0.24180153 0.21739629 -0.20465858
0.21529627 0.08161387 0.20246646 0.2575134 -0.095196344 0.1839925 0.3512382 0.24349539
0.32365873 0.16695021 0.43499303 0.12558411 -0.008872761 0.1855415 0.15465124 -0.11452391
-0.088495545 0.115461566 0.19372915 0.06791876 0.057829168 0.23371556 0.16262645 -0.048288565
0.10837306 0.16226184 0.089469194 0.17971097 0.26918748 0.08302405 0.2208976 -0.22149311
0.28025952 0.16326243 -0.095766306 0.19533198 0.26575592 0.1636265 -0.07584465 0.0100085735
0.07871885 0.17018943 -0.062389903 0.31063184 0.21886042 -0.09577657 -0.03755842 0.27981544
0.13701795 0.20847675 0.2269025 0.1189846 -0.067609295 -0.18669638 0.11171928 0.23756605
0.12495905 0.24556224 0.2748253 -0.113213934 0.30809993 0.15801774 -0.0066518327 0.27184898
0.31438616 -0.2872143 -0.14799586 0.13941352 0.19817516 0.08259133 0.08433274 -0.051414255
-0.009687729 0.08189249 0.48957136 0.27421525 0.014641548 -0.104488276 -0.037755843 0.1295378
0.20121115 0.06997378 0.27977705 -0.044913623 -0.26365215 0.32589525 0.14589532 0.21495102
-0.020124087 0.2129376 0.03929446 0.12239418 0.01663414 -0.31155723 -0.10690278 -0.03296044
0.09089112 0.14852771 0.3197685 0.31242335 0.0711107 0.009326578 0.17076053 0.27778593
0.11070476 0.11021427 0.22603425 0.10375903 0.03443115 -0.16020131 -0.05797643 0.16485623
-0.077786215 0.1503677 -0.05314657 0.15194568 -0.11512461 0.17310375 0.10986743 0.0057816403
-0.006080995 0.16121805 -0.06442531 0.1840216 0.38603315 0.049151015 0.11471166 0.28733137
-0.049710467 0.037659947 0.28919724 -0.21142177 0.010274094 0.109749176 0.21585615 0.34558547
0.17182395 0.015515384 0.16987145 -0.056070928 0.15444754 -0.080174804 0.13866179 -0.03337746
-0.0030428101 0.084624186 -0.11873513 0.102654114 -0.009666412 0.3496701 0.107453056 -0.03393776
00000000: 60ff 8f3e 2f80 a83e 7f63 8bbd 015c aa3e
00000010: 44f4 073e 84dc a4bb d937 20bd 8d3c 4abd
00000020: 7911 03be af24 81bc 5a7b 363e d433 7cbd
00000030: 6384 463e ebc2 c13d 480c d83c e581 fa3d
00000040: 16e4 383e 618f 5ebe 05aa 7e3e 1361 233e
00000050: b39d 543e 6404 0a3e 31ee aa3d e164 4b3e
00000060: 7e8a dfbd 73ad f03e 7b59 fd3a 7b13 22be
00000070: b056 c13d fada 263e 1f55 973e 6669 013e
00000080: 63d9 7b3e f0b5 0f3e cfff d1bd e31a 553e
00000090: d888 94bd c42f 613e 0b1d 803d af72 073e
000000a0: e7d4 933e 9460 35be 535b 36be 6c17 603e
000000b0: 9683 9e3d 1d93 1f3e d4e1 a13e 01a2 09be
000000c0: d215 3a3e fb28 1abe 9249 4b3e 9d7a 8c3d
000000d0: 54cc 743e 951a 843e 3c3b a13e 6486 15bd
000000e0: c36a 013e 0ff1 563e 622d 553e 0af8 6c3d
000000f0: 7b8a 913e cbd2 943e f983 533e e35e 693d
00000100: 4397 eb3d 989c b73d 2e4a 733e ddbf 653e
00000110: 4ec0 95bd fcf8 93bd 6e50 a83e d030 343e
00000120: 4ef1 d73d 310f db3e f49a 3ebe a24d 073e
00000130: 363d 1a3e acef b53e dec5 5cbe 8c9a cd3e
00000140: 6062 153e 7ad9 643e 3709 f63d ce67 913e
00000150: 24e0 e43d c737 7c3e ea26 783e 1eaf 613b
00000160: 9a2f 1d3e bfa0 653d 6d45 b33e be69 7b3d
00000170: 28d4 35bd e6ce 933e 60c0 783e 54d5 3dbe
00000180: c382 a4be 8afe cfbd 6611 383e 914e d23d
00000190: 0c61 573e d29a 77be 229d 5e3e 0592 51be
000001a0: a076 5c3e 2c25 a73d 5e53 4f3e ccd8 833e
000001b0: 4df6 c2bd 8868 3c3e 7ed5 b33e db56 793e
000001c0: 99b6 a53e fff4 2a3e 68b7 de3e 1f99 003e
000001d0: 0f5f 11bc 97fe 3d3e e55c 1e3e 838b eabd
000001e0: 273d b5bd 1d77 ec3d ef60 463e fe18 8b3d
000001f0: 47de 6c3d 2253 6f3e 8c87 263e 3bca 45bd
00000200: b2f2 dd3d f827 263e a03b b73d 2706 383e
00000210: f1d2 893e 8308 aa3d fb32 623e 17cf 62be
00000220: 2d7e 8f3e 442e 273e 2021 c4bd 1b05 483e
00000230: 2911 883e b58d 273e 7154 9bbd 00fb 233c
00000240: 5937 a13d 2346 2e3e 8e8c 7fbd 230b 9f3e
00000250: f21c 603e 8226 c4bd dcd6 19bd f843 8f3e
00000260: 6f4e 0c3e ee7a 553e 2159 683e 33ae f33d
00000270: be76 8abd 562d 3fbe 14cd e43d 8444 733e
00000280: 88ea ff3d ab74 7b3e e7b5 8c3e b5dc e7bd
00000290: 46bf 9d3e 67cf 213e 9ef7 d9bb ca2f 8b3e
000002a0: 39f7 a03e c10d 93be 3a8c 17be 6bc2 0e3e
000002b0: 6eee 4a3e a525 a93d a5b6 ac3d c197 52bd
000002c0: 48b9 1ebc 40b7 a73d 19a9 fa3e f165 8c3e
000002d0: 1ae3 6f3c f3fd d5bd dfa5 1abd 8fa5 043e
000002e0: 4c0a 4e3e 6a4e 8f3d f03e 8f3e 59f7 37bd
000002f0: 6afd 86be bedb a63e 9565 153e 1f1c 5c3e
00000300: 45db a4bc 500c 5a3e 3af3 203d cda9 fa3d
00000310: 5244 883c 6e84 9fbe d8ef dabd 8701 07bd
00000320: 2025 ba3d a617 183e b2b8 a33e f4f5 9f3e
00000330: 7da2 913d 81ce 183c d9db 2e3e f539 8e3e
00000340: 2db9 e23d 05b8 e13d 8675 673e 9d7f d43d
00000350: ad07 0d3d d00b 24be b178 6dbd 12d0 283e
00000360: 614e 9fbd fef9 193e 38b0 59bd a697 1b3e
00000370: 74c6 ebbd 1c42 313e 2d02 e13d ea73 bd3b
00000380: 1543 c7bb 5816 253e 6bf1 83bd 2970 3c3e
00000390: 23a6 c53e 9352 493d f2ed ea3d 191d 933e
000003a0: 349d 4bbd 5141 1a3d a911 943e f37e 58be
000003b0: ac54 283c 2dc4 e03d 6509 5d3e 94f0 b03e
000003c0: 9ef2 2f3e 3d34 7e3c c8f2 2d3e a1aa 65bd
000003d0: 7f27 1e3e b032 a4bd 5bfd 0d3e ceb6 08bd
000003e0: e269 47bb 724f ad3d 672b f3bd 523c d23d
000003f0: df5f 1ebc f607 b33e 5910 dc3d 5202 0bbd

l1.bias f4 [8]
0.31843767 0.390766 0.57597876 0.3290903 0.34193385 0.73373574 0.475635 0.33923107
00000000: 430a a33e 7b12 c83e 5873 133f 867e a83e
00000010: f411 af3e 1bd6 3b3f 6e86 f33e b2af ad3e

l2.weight f4 [8, 8]
-0.24334835 -0.08710843 0.55678046 0.073502205 0.26234686 0.80101454 0.62868196 -0.36326554
0.62867296 0.538113 -0.62707394 0.099603616 0.55654913 -0.5315389 -0.31042868 0.4978748
-0.30602908 0.7647911 0.82322097 -0.9481599 -0.3310118 0.4260066 0.9913459 0.29882026
0.07772226 0.96725225 0.028257763 -0.06307147 -0.86520797 0.340219 -0.12788671 0.5054003
0.38829547 0.24690405 -0.42664766 -0.44607276 0.046998296 -0.44378963 0.12670493 0.16650462
0.3740944 0.043926984 0.04903764 -0.6573658 -0.12354992 -0.16036251 0.042463303 0.40899944
0.3410354 -0.16501266 0.10002114 0.86105376 0.5470753 0.5767357 -0.32970047 -0.035961457
0.053965528 0.83235204 0.15732458 -0.26344895 -0.79978734 -0.22769326 0.5168823 0.60482
00000000: 4f30 79be e865 b2bd 2a89 0e3f 5388 963d
00000010: 5452 863e 4a0f 4d3f 4df1 203f f1fd b9be
00000020: b6f0 203f c6c1 093f eb87 20bf fbfc cb3d
00000030: 017a 0e3f ef12 08bf 82f0 9ebe 72e9 fe3e
00000040: d8af 9cbe 59c9 433f 9cbe 523f 9bba 72bf
00000050: 617a a9be 891d da3e d8c8 7d3f f8fe 983e
00000060: d92c 9f3d d89d 773f d37c e73c 9d2b 81bd
00000070: 457e 5dbf 2f31 ae3e bcf4 02be ea61 013f
00000080: aace c63e 6ad4 7c3e 9071 dabe a663 e4be
00000090: 4981 403d 6538 e3be f0be 013e 3080 2a3e
000000a0: 4d89 bf3e c8ec 333d b1db 483d 2049 28bf
000000b0: be07 fdbd 1236 24be 00ee 2d3d 6068 d13e
000000c0: 319c ae3e 14f9 28be e2d7 cc3d 056e 5c3f
000000d0: 200d 0c3f f3a4 133f 80ce a8be 524c 13bd
000000e0: f50a 5d3d 0615 553f b219 213e c8e2 86be
000000f0: ddbe 4cbf 6c28 69be 6652 043f 7cd5 1a3f

l2.bias f4 [8]
0.7077428 0.25629076 -0.04375719 0.5048464 -0.22641088 0.37845686 0.23363565 0.3026395
00000000: a22e 353f 8b38 833e bd3a 33bd 9d3d 013f
00000010: 41d8 67be 19c5 c13e 2f3e 6f3e 91f3 9a3e

l3.weight f4 [5, 8]
-0.9600873 0.46352774 -0.57530236 -0.77588713 -0.7918661 -0.21489146 0.49729735 -0.07526451
-0.75026315 0.5152986 -0.3137429 0.37500516 0.8826511 0.4654982 -0.83132905 0.046588454
0.39750376 -0.4990922 -1.0056384 0.19821304 -0.45666236 0.04921175 0.12652013 -0.3175434
0.30376416 -0.45908797 0.4303834 0.39948055 -0.43616664 0.1953724 -1.4056171 0.4043163
0.48005894 -0.2524282 0.46665022 -1.0546955 -0.21151893 -0.0539709 -0.51389164 -0.2596699
00000000: 48c8 75bf 8253 ed3e 0447 13bf 8aa0 46bf
00000010: bdb7 4abf 820c 5cbe c29d fe3e 4824 9abd
00000020: 3f11 40bf 9cea 033f e9a2 a0be ad00 c03e
00000030: 6cf5 613f c855 ee3e fbd1 54bf 89d3 3e3d
00000040: 9d85 cb3e 0389 ffbe c2b8 80bf 5cf8 4a3e
00000050: a6cf e9be 4392 493d 7e8e 013e 0c95 a2be
00000060: fa86 9b3e 940d ebbe 375b dc3e b788 cc3e
00000070: 3c51 dfbe b40f 483e 43eb b3bf 8c02 cf3e
00000080: 49ca f53e 453e 81be c7ec ee3e 4300 87bf
00000090: 6b98 58be 9710 5dbd 678e 03bf 74f3 84be

l3.bias f4 [5]
0.037579615 0.097504854 0.20331292 -0.1925382 -0.08897615
00000000: 15ed 193d a0b0 c73d 4331 503e bc28 45be
00000010: 2139 b6bd
