data.pth (torch, 5546 bytes, 6 tensors)

l1.weight f4 [8, 59]
0	0xbe182c06	-0.14860544
1	0xbe4d4c32	-0.20048597
2	0xbd487e54	-0.0489486
3	0x3c007d24	0.007842336
4	0xbe88eebd	-0.26744643
5	0xbe32449e	-0.17408988
6	0x3e98d090	0.2984662
7	0xbce21404	-0.027597435
8	0xbd7ef3f1	-0.06224436
9	0xbcb65271	-0.022256108
10	0xbda9089b	-0.082535945
11	0x3eff5c18	0.4987495
12	0x3dae6f7d	0.085173585
13	0xbcf7ef0e	-0.030265357
14	0xbea4fb49	-0.32222965
15	0xbe18fd8c	-0.1494047
16	0x3e20a10a	0.15686432
17	0x3e21d24d	0.1580288
18	0xbe35b225	-0.17743738
19	0xbc3e975d	-0.0116327675
20	0x3e086bbf	0.13322352
21	0x3da2147d	0.07914064
22	0x3e195ed3	0.14977579
23	0xbd203865	-0.039116282
24	0xbe4d9171	-0.20075013
25	0x3ba86fce	0.0051402813
26	0x3b8287d9	0.0039834795
27	0xbb8f0567	-0.0043646577
28	0x3d3b6add	0.04575621
29	0xbe05c160	-0.13062048
30	0xbd8645e7	-0.065563016
31	0x3d742ed5	0.059614975
32	0x3ec1506e	0.37756675
33	0x3dadeea2	0.08492781
34	0x3ebc0463	0.36722097
35	0xbce05d3c	-0.027388208
36	0xbe654df6	-0.22393021
37	0xbd94675a	-0.07246275
38	0xbe07372f	-0.13204645
39	0x3ef11ca7	0.47092173
40	0x3e8d556b	0.2760423
41	0x3e0db4fd	0.13838573
42	0x3d3f0cd9	0.04664311
43	0x3dfb7d05	0.12279705
44	0xbdbf054d	-0.09327183
45	0xbca82048	-0.020523205
46	0xbcf88d2b	-0.030340752
47	0x3aa69b0b	0.0012711001
48	0xbe398679	-0.18117703
49	0xbc601ad2	-0.013678269
50	0xbe5d81d1	-0.21631552
51	0x3d625651	0.0552581
52	0xbdcc8f1d	-0.09988234
53	0x3dd802cf	0.10547411
54	0x3d059355	0.03261121
55	0x3ddc3ee5	0.10754184
56	0xbdc8ec5e	-0.098107085
57	0x3c6be80b	0.014398585
58	0x3ec01dff	0.37522885
59	0x3db40642	0.08790256
60	0x3ddad566	0.10685234
61	0x3d357061	0.044296626
62	0x3e38bdbc	0.18041128
63	0xbde5df3f	-0.112242214
64	0x3da8de0b	0.08245476
65	0x3ec9acd2	0.39389664
66	0x3e5bbb54	0.21458179
67	0x3e1ae9c5	0.15128238
68	0x3e1ade54	0.15123874
69	0xbce0c629	-0.02743824
70	0x3edd860d	0.43266335
71	0x3e24c95f	0.16092442
72	0x3e594a60	0.21219778
73	0xbe83cb16	-0.2574088
74	0x3dad544b	0.08463343
75	0xbc60e746	-0.013727015
76	0x3d5b1f69	0.053496752
77	0x3e05c7ff	0.13064574
78	0x3caa8b25	0.020818302
79	0x3e7f13b7	0.24909864
80	0x3dddcf3b	0.10830542
81	0x3ea716c7	0.32634565
82	0x3dc31f6b	0.09527477
83	0x3e4904cb	0.19630735
84	0x3d8882ce	0.06665574
85	0x3e6570d8	0.22406328
86	0x3d768f55	0.060195286
87	0x3e409f0c	0.18810672
88	0x3d41818f	0.047242697
89	0x3e29be84	0.16576582
90	0x3e962e65	0.2933227
91	0x3ebc3fe2	0.3676749
92	0x3d8d212c	0.06891093
93	0x3ec7a580	0.38993454
94	0x3e812d0a	0.25229675
95	0x3e804bac	0.25057733
96	0x3d460a66	0.04834976
97	0x3e25f5af	0.16207002
98	0x3e89bd06	0.26902026
99	0x3e56dcc2	0.2098265
100	0x3de1e662	0.1103027
101	0x3ca86640	0.02055657
102	0x3e2c1e96	0.16808543
103	0x3d27f1b4	0.04100199
104	0x3e5294a8	0.2056452
105	0x3b042e58	0.0020169225
106	0x3e21f1e7	0.15814935
107	0x3d2abbff	0.041683193
108	0x3e71e6e4	0.23623234
109	0x3d581de3	0.052762877
110	0x3e5bc54f	0.21461986
111	0x3d4677df	0.04845416
112	0x3df39acd	0.1189476
113	0x3e37db7a	0.17954817
114	0x3cbc409b	0.022980025
115	0x3d74de2a	0.059782185
116	0x3e4a233a	0.1974
117	0x3f063ece	0.5243958
118	0xbdf51862	-0.11967541
119	0xbdbcccd2	-0.09218754
120	0x3b887d24	0.0041653086
121	0xbd14ab50	-0.03629619
122	0x3d0b4b16	0.034007154
123	0xbc43e1f8	-0.011955731
124	0xbc746cbd	-0.014918503
125	0x3d41742e	0.04722994
126	0xbdcbad92	-0.09945215
127	0x3d78d8b6	0.060753547
128	0xbd874b67	-0.06606179
129	0xbdb00d92	-0.08596338
130	0xbde0446d	-0.10950551
131	0x3de39840	0.11113024
132	0xbd0343e4	-0.032047167
133	0xbd896626	-0.067089364
134	0xbdab0517	-0.0835058
135	0xbd1a56b9	-0.03768036
136	0x3d3e65c5	0.046483774
137	0x3d9c611f	0.07635712
138	0x3d3b9f22	0.045806058
139	0x3d0ec737	0.034857955
140	0xbdf087f8	-0.11744684
141	0xbdcca880	-0.09993076
142	0x3e2ece02	0.17070773
143	0x3d2be36a	0.041964926
144	0x3dedb2c1	0.1160636
145	0xbd063368	-0.03276387
146	0xbd369b0d	-0.04458146
147	0xbc875963	-0.016522115
148	0xbe1e2d23	-0.15446906
149	0x3d1716ac	0.036886856
150	0x3d916c34	0.07100716
151	0x3cf47f2d	0.029845798
152	0xbdaf033d	-0.085455395
153	0xbdb2b7a1	-0.08726431
154	0x3e8bfb70	0.2734027
155	0x3dd7a19d	0.10528872
156	0x3cc74482	0.02432466
157	0xbd1cf7c8	-0.03832224
158	0xbe043c1d	-0.12913556
159	0x3d11d048	0.035599023
160	0x3d9ba8be	0.076005444
161	0x3d32e701	0.043677334
162	0xbcc4b453	-0.024011767
163	0xbcccd5b8	-0.025004253
164	0xbd3a7a6f	-0.045526918
165	0x3d8e341b	0.06943532
166	0x3cdf5926	0.027264189
167	0xbde8de9c	-0.11370584
168	0x3dbcd896	0.09220998
169	0xbdb7dfbf	-0.08978223
170	0x3d859324	0.065222055
171	0x3da6964b	0.08134135
172	0xbdabcc0b	-0.083885275
173	0x3c1e2ceb	0.009654264
174	0xbe1d8cef	-0.15385793
175	0x3d22f879	0.039787743
176	0xbdc4f622	-0.096172586
177	0xbda1bea3	-0.07897689
178	0xbe1f5c1d	-0.15562482
179	0x3e066c75	0.1312731
180	0x3ea428a8	0.32062268
181	0xbe8014d6	-0.25015897
182	0xbe8c63e5	-0.27419963
183	0x3eb310f0	0.3497386
184	0x3e212f7f	0.15740775
185	0x3f012766	0.5045074
186	0x3e412bbb	0.18864338
187	0x3d2177b9	0.039420817
188	0x3e7247d2	0.2366021
189	0x3e0e5feb	0.13903777
190	0x3e595844	0.21225077
191	0xbe6c6df6	-0.23088822
192	0xbe23248d	-0.15931912
193	0x3ebe3522	0.37149912
194	0x3ecfaf3f	0.4056339
195	0xbe53a537	-0.20668493
196	0x3dc48c5f	0.09597086
197	0x3ee7e889	0.45294598
198	0x3d88b9a0	0.0667603
199	0x3e1e4911	0.1545756
200	0x3e8e2cdb	0.27768597
201	0xbe2faf40	-0.17156696
202	0xbd138d80	-0.036023617
203	0xbd038f76	-0.032119237
204	0x3c697feb	0.014251689
205	0x3ebf57e0	0.3737173
206	0x3cd9db82	0.026593927
207	0x3db333d3	0.08750119
208	0x3a3d6341	0.0007224568
209	0x3e02ea91	0.12784792
210	0x3e9d12bb	0.30678353
211	0x3e4b5fdb	0.19860785
212	0x3d3e8529	0.04651371
213	0xbe41d3fd	-0.18928523
214	0x3e21d930	0.15805507
215	0x3e1dd218	0.15412176
216	0x3e870acc	0.26375425
217	0x3e88dad4	0.26729453
218	0x3e6a2a48	0.22867692
219	0x3e0d54ba	0.13801852
220	0x3e802841	0.2503071
221	0x3e30e8bc	0.17276281
222	0x3dad7769	0.08470041
223	0x3e7273a1	0.23676921
224	0x3dfc4e2a	0.12319596
225	0xbe49c73f	-0.19704913
226	0x3eab22d5	0.33425012
227	0x3e86a331	0.2629638
228	0x3ea01211	0.31263784
229	0xbe25bf3a	-0.16186228
230	0x3d6b5cd0	0.05746156
231	0x3e7fbdf9	0.24974813
232	0x3e3a7588	0.18208897
233	0x3da663df	0.08124518
234	0x3e5e374f	0.21700786
235	0x3e687f02	0.227047
236	0x3d14ea00	0.036355972
237	0x3d26c0c4	0.04071118
238	0x3d75b47f	0.059986588
239	0x3da4e4e4	0.0805147
240	0x3c3b1a53	0.01141985
241	0xbd78c8f8	-0.060738534
242	0x3c0dbd6a	0.008651117
243	0xbccbed23	-0.024893349
244	0x3d0b646c	0.034031317
245	0xbd870cce	-0.06594239
246	0xbafbf59a	-0.0019222975
247	0xbd105d76	-0.03524538
248	0x3d675b9a	0.056483842
249	0xbd8c41f5	-0.06848518
250	0xbdfbd119	-0.122957416
251	0x39ed4d45	0.00045261733
252	0xbda631b4	-0.08114949
253	0x3da66928	0.08125526
254	0xbdb6f001	-0.08932496
255	0xbd6e64df	-0.058201667

l1.bias f4 [8]
0	0x3ea4f87c	0.3222083
1	0x3ec2a759	0.380183
2	0xbd488f96	-0.04896506
3	0x3eb3d8cc	0.3512634
4	0xbdeb67ff	-0.11494445
5	0x3ecf56c3	0.4049588
6	0x3ebd3ca2	0.36960322
7	0x3ed8ebb3	0.42367324

l2.weight f4 [8, 8]
0	0x3eb805f1	0.35942033
1	0x3efbe265	0.49196163
2	0xbeaa33cf	-0.33242652
3	0x3f547899	0.8299652
4	0xbe616869	-0.22012486
5	0xbf04abcb	-0.51824635
6	0x3f33acf4	0.7018578
7	0xbf27d56e	-0.6556004
8	0x3e74b32e	0.23896477
9	0xbe0e9ccb	-0.13927
10	0xbe1f8368	-0.15577471
11	0xbd964de6	-0.07339077
12	0x3e111416	0.14167818
13	0x3b4685e3	0.0030292205
14	0xbe36f8f3	-0.17868404
15	0x3d8d437c	0.06897637
16	0xbe95df8b	-0.29272112
17	0x3edce9f7	0.4314725
18	0xbc33cb45	-0.010973756
19	0xbea86c0c	-0.32894933
20	0xbe337b61	-0.17527534
21	0x3f1ad276	0.6047739
22	0xbd31f08a	-0.043442287
23	0x3f529a6d	0.82266885
24	0x3f0819f0	0.5316458
25	0x3f2cf2d7	0.67558044
26	0xbe9bbd99	-0.3041809
27	0x3e9f05f6	0.31059235
28	0xbd5fbb02	-0.054621704
29	0xbef5dcd4	-0.4802004
30	0xbee0528d	-0.4381298
31	0x3f2e5e6c	0.68112826
32	0xbd8661a9	-0.06561596
33	0x3e7b3ede	0.245357
34	0xbd15ce0b	-0.03657345
35	0x3e6a9060	0.22906637
36	0x3eb2158e	0.3478207
37	0x3deb531f	0.114904635
38	0x3f432598	0.7622924
39	0xbefbea54	-0.49202216
40	0xbef4c480	-0.47806168
41	0xbd9c306d	-0.07626424
42	0x3f0b6d1d	0.5446337
43	0xbea32a18	-0.31868052
44	0xbdac93b9	-0.08426613
45	0x3f1515da	0.5823647
46	0x3f2c7109	0.6735998
47	0x3f1ae2ca	0.605023
48	0xbe8b2237	-0.2717454
49	0x3ddd2576	0.10798161
50	0xbd1188e4	-0.03553094
51	0x3d62cd7b	0.055371743
52	0x3e47b2d8	0.19501817
53	0x3f44f7f8	0.7694087
54	0x3f18b5b4	0.59652257
55	0xbe43a5d9	-0.19106235
56	0xbe5030f2	-0.20331171
57	0xbd0ddc90	-0.034634173
58	0x3e940465	0.28909603
59	0xbbd04f2a	-0.0063570933
60	0xbe339073	-0.17535572
61	0x3d6a2708	0.05716613
62	0xbe615ded	-0.22008486
63	0x3c67e964	0.014154766

l2.bias f4 [8]
0	0x3ed440f7	0.41455814
1	0xbe85fa5e	-0.26167578
2	0x3e4db211	0.20087458
3	0x3e57f1f0	0.21088386
4	0x3e24b895	0.16086037
5	0x3d5a8a21	0.053354386
6	0x3eb49486	0.35269564
7	0xbe9cffa9	-0.30663803

l3.weight f4 [3, 8]
0	0xbf3a5c4d	-0.7279709
1	0xbce26453	-0.027635729
2	0x3efa6683	0.48906335
3	0xbecae7bb	-0.3962992
4	0xbdd83ce4	-0.10558489
5	0x3ecc0314	0.39846098
6	0x3ec14120	0.37745
7	0x3d5e273a	0.054236628
8	0x3f2eb76f	0.6824865
9	0xbdd5cf6c	-0.10439953
10	0xbf469bef	-0.77581686
11	0xbeef305b	-0.4671658
12	0x3f0d91a8	0.5530038
13	0xbefe809f	-0.49707505
14	0x3edc95f9	0.4308317
15	0xbead6e2b	-0.33873114
16	0x3d44890b	0.047982257
17	0xbe45c56a	-0.19313589
18	0x3da73728	0.08164817
19	0x3f0020ea	0.5005022
20	0xbf4b4e97	-0.79416794
21	0xbf1e8f57	-0.6193747
22	0xbf287164	-0.6579802
23	0x3e5f3758	0.21798456

l3.bias f4 [3]
0	0x3ce42471	0.027849408
1	0x3e56727f	0.20942114
2	0xbe268eca	-0.16265407
