flask-server/chatbot/data.pth (torch, 11306 bytes, 6 tensors)

l1.weight f4 [8, 187]
000000 ad 9f fa 3d ab 9f 3f 3e 85 96 3c be bc dd b8 3e
       0.12237487 0.18713252 -0.18416794 0.3610667
000010 09 78 a7 3d 3a 82 f0 bd c4 15 a6 bd 40 41 aa bd
       0.08177192 -0.11743589 -0.0810962 -0.08313227
000020 89 ef 2f 3e 6b 16 b1 be 92 97 22 be e3 cf e5 3d
       0.17181219 -0.34587416 -0.15878132 0.11221292
000030 7b 2a 02 3e 10 0b b1 3e fe 92 cf 3d a8 58 75 38
       0.12711518 0.34578753 0.101354584 5.849512e-05
000040 57 f4 50 bd e1 e1 fa bd df 1e 33 3e ec e2 cc 3c
       -0.05101427 -0.12250114 0.17492245 0.025010549
000050 bd be 24 3e 21 8f 94 3d 33 38 e8 bd 52 64 83 bc
       0.16088386 0.07253862 -0.11338844 -0.016039047
000060 b3 c7 b7 3d ed cc 88 3e bf bc 56 be 4a 2a ac 3e
       0.089736365 0.26718846 -0.20970438 0.33626014
000070 5d 7e ab bd bb a9 61 3e 56 70 84 3d 93 78 33 3d
       -0.08373711 0.22037403 0.06466739 0.04381616
000080 2d f6 91 3e 01 9c 16 bb b7 e7 8e 3e 85 fd 01 3e
       0.2850813 -0.002298117 0.2791116 0.12694366
000090 05 84 11 3d 86 f6 02 be f8 14 3c bd 37 f7 96 3e
       0.035526294 -0.12789354 -0.045918435 0.29485485
0000a0 60 61 b0 be 49 cd 0e be e4 75 34 be 67 2a b5 3d
       -0.3444929 -0.13945498 -0.17623097 0.08845978
0000b0 a8 cb 31 3e 8d 41 f2 bd ee 41 3a 3d fd 65 ec 3d
       0.17362845 -0.11828909 0.04547303 0.1154289
0000c0 7b 97 85 3e 0e 19 26 be bb 8e 3b 3e b1 b6 da 3e
       0.26092133 -0.16220495 0.18316166 0.42717507
0000d0 11 09 5d be f0 d9 17 3e 0c 3a c7 3d 3f 21 d9 3d
       -0.2158549 0.1482923 0.097278684 0.10602044
0000e0 71 01 7e 3e 18 db 6a 3e de b9 92 3b 9a b0 c0 bd
       0.24805237 0.2293514 0.0044777235 -0.09408684
0000f0 6a d2 1d 3e 2c 9b 2a be 20 a0 7d 3e ba b7 6d 3d
       0.15412298 -0.16660756 0.24768114 0.058036543
000100 e6 c9 89 bd ba 9f 94 3e be c9 ab 3e 96 a5 c4 bd
       -0.06727962 0.29028112 0.33552355 -0.096018955
000110 46 7f aa 3e a7 3a 66 3e 64 de 38 be b2 43 0a 3e
       0.33300227 0.22483312 -0.18053585 0.13502386
000120 b5 e1 55 3e bd 10 40 3e 8c 95 62 3e fa 40 2a 3e
       0.20886882 0.18756385 0.2212736 0.16626349
000130 0d f2 13 bd 8c 11 4c 3e 74 94 e4 bd 4b 80 09 3e
       -0.03611951 0.19928569 -0.11161128 0.13427846
000140 28 0d 68 3e a0 bc 96 3e a8 b2 3d 3e 26 88 10 be
       0.22661269 0.29440784 0.18525183 -0.14114437
000150 58 69 5f 3e cc 7a 77 3e f6 4a ac 3e 12 57 21 be
       0.21817529 0.24167937 0.3365094 -0.15755871
000160 5b 6e d8 3c 4e 58 ac 3e 51 d8 3a 3e 71 f0 38 bd
       0.02641981 0.3366112 0.1824658 -0.045151178
000170 7c c3 14 3d 88 b6 92 3e cf c4 25 be 8c 32 d0 3e
       0.03631924 0.28654885 -0.16188358 0.40663564
000180 5f be 1a 3c f6 3d 87 3e 7c 17 03 be 8c f3 81 3e
       0.009444802 0.2641446 -0.12801927 0.25381124
000190 2c 05 95 3e 0d e8 56 3e a8 ad 19 be 93 0d c3 3e
       0.29105508 0.20986958 -0.15007651 0.38096294
0001a0 4d 2c f8 3d d7 2d a7 3d 03 4a 35 3e 1f e3 8a 3e
       0.12117825 0.0816304 0.17704014 0.27126405
0001b0 d3 44 bf 3d a0 30 47 be 4c 5f 62 3e e9 1e b9 3c
       0.09339299 -0.19452143 0.22106665 0.022597747
0001c0 36 dd f3 bc 34 c8 15 3e 75 68 9c 3e 03 1d 26 be
       -0.029768568 0.14627153 0.30548444 -0.16222005
0001d0 2e 7d 84 3e fd 03 89 3d f2 6b ed 3d 0a 93 af 3d
       0.25876755 0.06690214 0.115928546 0.08572967
0001e0 06 13 fc 3d 96 44 9d 3e 0d d6 15 be 67 41 91 3d
       0.12308316 0.3071639 -0.14632435 0.07092553
0001f0 32 5e ba bd 8d 47 05 bd 48 c6 50 bb 14 9e 2d 3d
       -0.090999976 -0.03253894 -0.0031856466 0.042387083
000200 59 c9 07 3e be 8d 5d bc 32 20 7c 3e fe 3d 85 3d
       0.13260402 -0.0135225635 0.24621657 0.06505965
000210 59 e7 7e 3e 0a 40 a8 3e d6 99 41 3e 1d da 6a 3e
       0.2489294 0.32861358 0.1890634 0.22934766
000220 20 31 9e bd 51 55 a1 3e cb ce 0b be 52 91 61 3d
       -0.077242136 0.31510404 -0.13653104 0.05507023
000230 be 39 1c 3e 83 e6 83 3d cd 08 a2 bc ee d9 7f 3d
       0.15256402 0.06440451 -0.019779587 0.062463693
000240 25 d6 2a be 13 33 4c 3d 32 39 ba bd 17 4a 81 be
       -0.16683252 0.049853396 -0.090929404 -0.2525184
000250 75 79 50 3e 52 fb ee 3d db 13 9f bd 1e e4 b1 bd
       0.20358832 0.11669029 -0.07767459 -0.08686088
000260 9b b0 9c 3d 44 10 e0 3d dd 2c 27 bd a8 88 2b 3e
       0.07650872 0.109406024 -0.04081427 0.16751349
000270 62 92 a3 3c 33 4e 8d 3e 46 3f 55 be a3 ba c3 3d
       0.019967262 0.27598724 -0.20824918 0.095570825
000280 94 a9 f3 bc 20 ac aa 3d 6e fe 81 bd 40 33 22 3e
       -0.029743947 0.083336115 -0.06347357 0.15839863
000290 58 19 b6 3d 4d 2c 1b be 30 ef e5 3c b2 df 1d 3e
       0.08891553 -0.15153618 0.028068155 0.15417364
0002a0 6e 40 f7 bc 17 dd 91 3d 1d 30 b2 3e d2 a2 62 3e
       -0.03018209 0.07122248 0.34802333 0.22132424
0002b0 ea d4 8a 3e 46 44 48 be 98 09 bf 3e 9e a0 25 3e
       0.27115566 -0.19557294 0.37312007 0.16174552
0002c0 ad e3 46 3e 53 42 47 3e 92 fa ab bd b5 ed 71 3e
       0.19422789 0.19458894 -0.08397402 0.23625834
0002d0 36 b0 10 3e 75 a8 11 3e a1 15 9e 3d 4e 9d 6b 3e
       0.14129719 0.14224418 0.07718969 0.23009226
0002e0 76 31 4e be 35 fa 2b be c7 6c a3 3d df c0 3e 3b
       -0.20136055 -0.16794665 0.07979732 0.002910666
0002f0 75 59 5c bd 8b a5 32 be 0c b6 90 3c ef c6 f7 bc
       -0.05379625 -0.17445962 0.017664932 -0.030246226
000300 c9 a6 57 be 35 f4 6f 3e 34 6e 8e 3e 4d ce 08 3e
       -0.21059717 0.23433001 0.27818453 0.13359948
000310 19 60 a0 be 58 f8 1c be f6 ce 7b bd d1 63 2b 3e
       -0.31323317 -0.1532911 -0.06147667 0.16737296
000320 f6 f5 67 3e 6f e5 2b bd f7 b2 ec 3d e1 25 9e bd
       0.2265242 -0.04196685 0.11557572 -0.077220686
000330 7c e3 7b bd 5e c4 b8 bd 8e 03 0e 3f 58 d4 c3 3c
       -0.061496243 -0.09021829 0.55474174 0.023904964
000340 c5 6a a6 bd 2c 6b 36 be 0a 88 89 3c 97 cf 3b be
       -0.081258334 -0.1781432 0.016788501 -0.18340908
000350 b5 0f 47 3d e4 17 d4 3d db 5e fa 3c 03 6c e5 bc
       0.048598964 0.10356119 0.030562809 -0.028005606
000360 3a 78 ba be ce 33 12 3e 6e e4 3d bd 44 35 36 3d
       -0.3641985 0.14277574 -0.046360426 0.04448439
000370 dd 6e 98 3c 1d 18 04 3e 35 f5 0b bd c5 c6 74 3c
       0.018607551 0.12899823 -0.034169395 0.0149399685
000380 5f 33 a0 3d 1c 0c b6 bd b3 f8 1c 3e 2b 9b ab be
       0.07822298 -0.088890284 0.15329246 -0.3351682
000390 3e 68 03 be 11 95 2c be c9 59 f0 bd a6 06 37 3d
       -0.12832734 -0.1685374 -0.11735875 0.044684075
0003a0 cf 48 b2 3e b5 a8 cc 3e 61 c1 b1 bb fb 79 51 3e
       0.34821174 0.39972463 -0.005424664 0.20456688
0003b0 17 dc f3 bd f0 03 6f be 57 04 8f 3e 01 27 11 3e
       -0.11907213 -0.23341346 0.27933 0.14175035
0003c0 58 94 1a 3e 83 9e 87 bc 0f d9 9c 3e f5 26 9e 3d
       0.15095651 -0.016555076 0.30634353 0.07722274
0003d0 4b bc db 3d 67 62 01 3c 6f e0 00 be 85 b7 9d 3d
       0.107292734 0.007896996 -0.12585615 0.07701019
0003e0 93 41 86 bd d9 63 4b 3d 73 86 f4 bd 82 5d 5d 3e
       -0.06555476 0.04965577 -0.11939707 0.21617702
0003f0 50 98 68 3e 16 ec 52 3e d6 7c 1e bd 55 47 5d 3e
       0.22714353 0.20597872 -0.03869327 0.21609242

l1.bias f4 [8]
000000 e4 04 b1 3e 22 ce cc 3e b9 9f 94 3e 16 55 94 3e
       0.34574044 0.40001017 0.2902811 0.28971165
000010 44 31 17 3f 01 2e 08 3f f2 2d da 3e 73 c9 c5 3e
       0.5905955 0.53195196 0.42613178 0.38630256

l2.weight f4 [8, 8]
000000 8c 28 2a 3f a3 d6 aa 3e 0e 7c 34 3e b2 94 df 3e
       0.6646812 0.3336688 0.17625448 0.43668133
000010 9c 81 95 3e f4 6f 47 bf 59 c4 80 bd 92 5e 83 bd
       0.29200447 -0.779052 -0.0628745 -0.06414522
000020 5b 5e fc 3e 17 56 b1 3e a0 30 ff be 28 78 7b 3e
       0.49290738 0.34635994 -0.49841785 0.24557555
000030 99 4a 06 bd f0 57 7a be 71 79 47 3d ee 1f 5e 3d
       -0.032785986 -0.24447608 0.0486998 0.05422967
000040 f5 d4 9a be a5 54 28 be f2 e6 f2 bd 58 5a 1e 3d
       -0.30240598 -0.1643854 -0.118604556 0.038660377
000050 2c 88 24 be c8 c2 29 3a 79 16 39 3d ae e2 18 3e
       -0.1606757 0.0006475863 0.045187447 0.14930221
000060 94 4e 37 3f c6 23 30 3e 00 77 dc 3e b7 83 2d 3f
       0.71604276 0.17201146 0.4305954 0.67779106
000070 61 2f 55 bd 10 5a fa be a1 bb 2a bf de 62 83 be
       -0.052047137 -0.48896837 -0.6669255 -0.25661367
000080 ef f6 14 3f b8 d3 64 3f a6 9f 87 be 79 92 3c be
       0.5818929 0.8938556 -0.2648899 -0.1841525
000090 9b d3 17 3f df 1b fa be fe ff 8c 3f 12 c9 7e 3f
       0.5930726 -0.4884939 1.1015623 0.9952556
0000a0 af f5 24 3e 52 85 63 3f 65 e7 13 bf a0 21 09 3f
       0.16109346 0.88875306 -0.57774955 0.5356693
0000b0 c7 9d a4 3e 56 f8 1d 3f 61 2b ce bc 48 45 10 3f
       0.32151625 0.61707056 -0.025167169 0.56355715
0000c0 c0 f7 17 3f 06 52 07 bf 14 ff 30 3f 4d 26 12 3f
       0.5936241 -0.5285953 0.6913922 0.5708969
0000d0 46 bf 20 bf e0 dd da bd e0 35 33 3f 7d 04 17 3f
       -0.6279186 -0.106868505 0.7000408 0.58991224
0000e0 e3 43 32 bd dc 2a 57 3f d4 4a 9f be 3b 7a 20 be
       -0.043521773 0.84049773 -0.31111777 -0.15671627
0000f0 ae 49 65 3f cd de 8e 3f 09 b2 e7 3e 40 e9 1d 3f
       0.8956555 1.1161743 0.45253018 0.61684036

l2.bias f4 [8]
000000 18 3e 84 be 0a 43 b5 be fc d5 42 be 5f 5d 90 3e
       -0.25828624 -0.3540271 -0.19026941 0.28196236
000010 51 ed ee 3d 19 89 9d be 83 ff c8 3d 2d 9b e3 3e
       0.11666358 -0.3076866 0.0981436 0.44454327

l3.weight f4 [6, 8]
000000 57 09 1c bf 75 7b 18 bf c7 87 86 3e 16 40 ce 3c
       -0.6095175 -0.5956338 0.26275465 0.025177043
000010 ec 98 55 bf 7d 51 1f 3f 03 d1 21 3e bf ac 3a bd
       -0.83436465 0.62233716 0.15802388 -0.0455749
000020 07 b5 b4 3e 02 0a 55 3f b5 2b 9f be 51 cf 97 bd
       0.35294363 0.83218396 -0.31088033 -0.07412589
000030 5f 06 f4 3d 35 01 6a 3e 87 6c 0b bf 6d a5 3e bc
       0.11915278 0.22852023 -0.54462475 -0.01163612
000040 b0 56 d6 3e e2 f0 1c bf de c1 9f 3e 38 e3 1a 3f
       0.41863012 -0.6130506 0.31202596 0.6050296
000050 a9 c8 c5 be ad fb 3e bf d6 ff b3 3e 90 34 11 bf
       -0.38629654 -0.74602777 0.35156125 -0.5672083
000060 ce d1 f2 be 99 00 a1 be 81 2c b3 be 3a 24 98 be
       -0.47425693 -0.31445768 -0.3499489 -0.2971514
000070 23 af 38 bf f8 ec 82 3d 14 69 8d bf 6e cc 59 3f
       -0.7214224 0.063928545 -1.1047692 0.8507756
000080 76 42 2d bf 1c a0 1e bf d9 6b 7a be 37 74 17 bf
       -0.67679536 -0.6196306 -0.24455203 -0.59161705
000090 bb 67 18 3f e3 6a c3 3e 80 af 9f bf 5a 9c 0f 3f
       0.5953328 0.38167486 -1.2475433 0.5609795
0000a0 12 f6 87 be 62 b0 45 bf 22 52 46 bd 56 ef 17 bf
       -0.26554924 -0.77222264 -0.04841817 -0.5934957
0000b0 32 fd 26 3f b5 fd 84 bf 99 43 e8 3e 9c 75 0b be
       0.65230095 -1.0389925 0.45364073 -0.13619083

l3.bias f4 [6]
000000 ca fa 82 bc 7d ad 05 bf e0 63 9c be 48 59 56 3e
       -0.015988726 -0.5221785 -0.3054495 0.20932496
000010 ab 6d a6 be 9a ec 2a 3e
       -0.32505545 0.16691819
