flask-server/chatbot/data.pth (torch, 13034 bytes, 6 tensors)

l1.weight f4 [8, 221]
0	0x3c79f5c3	0.015256348
1	0x3ce745f0	0.028231591
2	0xbe8a54b5	-0.2701775
3	0xbe330c83	-0.17485242
4	0x3d449c95	0.04800089
5	0xbebc86a3	-0.3682147
6	0x3eabac59	0.33529928
7	0x3eb7a4eb	0.3586801
8	0x3e227157	0.15863548
9	0xbec11c46	-0.37716883
10	0xbe8d6907	-0.27619192
11	0x3e8131e0	0.25233364
12	0xbd9b4724	-0.07581928
13	0x3ee6da5b	0.45088467
14	0x3e2008a1	0.15628292
15	0x3cbe5006	0.023231518
16	0x3e43de83	0.1912785
17	0xbd20e98c	-0.039285228
18	0x3ec9356b	0.39298567
19	0x3da0fcac	0.07860693
20	0xbd479186	-0.048722766
21	0x3f16d0cd	0.58912355
22	0x3c745d6d	0.014914853
23	0xbc09f75d	-0.008420792
24	0xbdb14e89	-0.086575575
25	0x3d4e533e	0.050372355
26	0x3e56f3b3	0.20991401
27	0x3e99f052	0.30066162
28	0xbe5e2405	-0.21693428
29	0xbc520f80	-0.012821078
30	0xbc9b19bd	-0.018933171
31	0x3e2e0da8	0.16997397
32	0x3ef85e37	0.4850938
33	0x3e92680e	0.28595012
34	0x3dc7fde5	0.097652234
35	0x3dd1e29b	0.102483
36	0x3d046304	0.03232099
37	0x3e56ebf8	0.20988452
38	0xbdc1e78f	-0.094679944
39	0xbe153bc5	-0.14573582
40	0xbd3f8ae7	-0.046763327
41	0x3e884cff	0.26621243
42	0x3e086e0b	0.13323228
43	0x3deb6447	0.11493736
44	0xbebdd8d4	-0.3707949
45	0x3e492fec	0.19647187
46	0x3e9a557a	0.30143338
47	0xbe08db54	-0.13364917
48	0xbe5b5ff3	-0.2142332
49	0xbdc1f5b4	-0.09470692
50	0xbc939be4	-0.01801867
51	0x3eed8e57	0.4639766
52	0x3f0be11a	0.5464035
53	0x3e1abb17	0.15110432
54	0xbe24828a	-0.16065422
55	0x3e4cb056	0.19989142
56	0xbe626ef7	-0.22112642
57	0xbdada07d	-0.08477876
58	0x3eadbc96	0.33932942
59	0x3ed2b4d3	0.41153583
60	0x3df73772	0.12071122
61	0xbbb9eb1d	-0.0056737796
62	0x3dc4be43	0.09606602
63	0x3ed17504	0.40909588
64	0x3e02337a	0.12714949
65	0x3dcfffa0	0.101561785
66	0x3da1311c	0.07870695
67	0x3e056fbe	0.13030908
68	0x3d438d4c	0.047742173
69	0x3e2bad78	0.16765392
70	0x3d9c2b99	0.07625503
71	0x3dfb7058	0.12277287
72	0x3eafa187	0.34302923
73	0x3eb89089	0.36047772
74	0x3e5e8edc	0.21734184
75	0x3e714a3d	0.23563476
76	0x3e4e897f	0.20169638
77	0x3d233880	0.039848804
78	0x3e245ac6	0.16050252
79	0x3d20cf2e	0.039260082
80	0xbe562dce	-0.2091591
81	0x3c0b7f23	0.0085141985
82	0x3e6a7671	0.22896744
83	0xbe9e546f	-0.30923793
84	0x3d946729	0.07246239
85	0x3e262bd4	0.16227657
86	0x3e282d61	0.1642356
87	0x3dd2031f	0.102545016
88	0xbe6ad96b	-0.22934501
89	0xbe262877	-0.16226374
90	0x3d0a4032	0.033752628
91	0xbd628746	-0.055304788
92	0x3d39ed0f	0.045392092
93	0x3d4aa2bb	0.049471598
94	0x3e69b16f	0.22821592
95	0x3e46b434	0.1940468
96	0x3e842547	0.2580969
97	0x3e66ffb0	0.22558475
98	0x3e448a6c	0.19193429
99	0x3e00512e	0.12530968
100	0xbe4ed294	-0.20197517
101	0x3e96c6aa	0.29448444
102	0xbeb7d82e	-0.3590712
103	0x3e1ba299	0.15198745
104	0xbc99bff4	-0.018768288
105	0xbd8e2ec2	-0.06942512
106	0x3ed9277a	0.4241293
107	0xbe198898	-0.14993513
108	0x3b87b1be	0.0041410616
109	0x3e7eef04	0.24895865
110	0xbda814c6	-0.08207087
111	0xbe29706b	-0.1654679
112	0x3f14798d	0.5799797
113	0xbd87a294	-0.06622806
114	0x3e0120c6	0.12610158
115	0x3e05859b	0.13039248
116	0x3db85793	0.090010785
117	0x3e10d5ff	0.14144133
118	0x3e4574ea	0.1928288
119	0x3e0ee3b3	0.13954048
120	0xbe2612b4	-0.16218072
121	0xbd611f73	-0.054961633
122	0x3e92dde8	0.28684926
123	0xbd7a1e70	-0.061064184
124	0x3e22dc1a	0.15904275
125	0xbc4e600a	-0.01259614
126	0xbe474c08	-0.19462597
127	0x3ea1843c	0.315462
128	0x3dd41d75	0.10357181
129	0xbe395136	-0.18097386
130	0xbeb1304d	-0.34607163
131	0xbc99e6bf	-0.018786786
132	0x3eaac005	0.33349624
133	0x3b5215d5	0.003205647
134	0x3e660bfc	0.22465509
135	0x3e6e107c	0.23248476
136	0x3e40c09e	0.18823478
137	0x3e4ae73c	0.19814771
138	0x3f01fd66	0.5077728
139	0x3ec29295	0.38002458
140	0x3e52bbe2	0.20579484
141	0xbdd12cf5	-0.10213653
142	0xbe2b30f9	-0.167179
143	0x3e04f2a1	0.1298318
144	0x3d412b48	0.047160417
145	0x3ee93e09	0.45555142
146	0x3d476a10	0.048685133
147	0xbbfac149	-0.007652436
148	0x3e34340a	0.17597976
149	0x3c3a9ef5	0.011390437
150	0xbd617c07	-0.055049922
151	0xbe41a0b2	-0.18908957
152	0x3ee61859	0.4494045
153	0x3e23048b	0.15919702
154	0xbb9acb2c	-0.004723927
155	0x3b87b5f5	0.004141564
156	0x3e9ac56d	0.3022875
157	0x3dd926c0	0.10603094
158	0x3ea702f8	0.32619452
159	0x3e145bca	0.1448814
160	0xbe08af91	-0.13348223
161	0x3e13525d	0.14386888
162	0xbda6ddef	-0.08147799
163	0x3dabcaa0	0.08388257
164	0xbca54082	-0.020172361
165	0x3e5abebf	0.21361826
166	0xbe49dfc2	-0.19714263
167	0xbd8d65c8	-0.06904179
168	0x3df14cde	0.117822394
169	0x3e34244e	0.17591974
170	0x3cc1582e	0.023601618
171	0x3e55b0ba	0.20868197
172	0xbce22396	-0.02760486
173	0x3c1e1596	0.009648701
174	0x3d91927c	0.07108018
175	0xbe78c8ee	-0.24295399
176	0xbddfe6a3	-0.10932662
177	0xbdead5f3	-0.11466589
178	0x3e27518d	0.16339703
179	0x3da717fc	0.081588715
180	0x3e35faa7	0.17771398
181	0xbe11171f	-0.14168976
182	0xbda170ae	-0.0788282
183	0xbe06d26e	-0.1316621
184	0xbd104c83	-0.035229217
185	0xbd91f19d	-0.07126162
186	0xbdbd317b	-0.09237953
187	0x3eac93bb	0.3370646
188	0xbde37804	-0.111068755
189	0x3dfd3d14	0.12365165
190	0x3df24270	0.11829078
191	0x3ef26f4f	0.47350547
192	0xbcd37674	-0.025813319
193	0xbe080aff	-0.13285445
194	0xbe2e1bea	-0.17002836
195	0xbe8c0f96	-0.2735564
196	0x3cfaa60c	0.030596755
197	0x3d691ca5	0.056912083
198	0x3e14c2e3	0.14527468
199	0xbe08247f	-0.13295172
200	0x3eafd1ef	0.34339854
201	0x3e3f844c	0.18702811
202	0x3e1abc2a	0.15110841
203	0xbea413c2	-0.32046324
204	0xbdd66dbd	-0.1047015
205	0x3e881869	0.26581123
206	0xbdb2636f	-0.08710372
207	0x3e27e745	0.16396816
208	0x3df4302c	0.119232506
209	0xbea7c7de	-0.32769674
210	0xbe51dedd	-0.20495172
211	0xbcc02f04	-0.023459919
212	0x3cb18494	0.021669663
213	0x3c3d20fc	0.011543509
214	0xbe5d84c3	-0.21632676
215	0xbe0cf44e	-0.1376507
216	0x3eb49898	0.3527267
217	0x3efee101	0.4978104
218	0xbb769bbb	-0.0037629444
219	0x3e401233	0.18756942
220	0x3d347fe6	0.044067286
221	0xbcdc43b5	-0.026887754
222	0x3d0c8744	0.034308687
223	0xbe4fa29f	-0.20276879
224	0x3c647530	0.013943955
225	0x3caee4af	0.02134928
226	0xbe8a46aa	-0.27007037
227	0x3e90dfdd	0.28295794
228	0x3ecd0652	0.40043885
229	0x3e3e8bd4	0.18608028
230	0xbeb24b15	-0.34822908
231	0xbe6453b3	-0.22297554
232	0xbc461de2	-0.012092086
233	0xbd9ae1cd	-0.07562599
234	0x3ec41808	0.38299584
235	0x3e425cc3	0.18980698
236	0xbcc6d8f5	-0.024273375
237	0x3d6b84ee	0.05749982
238	0xbd86ffe3	-0.06591775
239	0x3e8154ff	0.2526016
240	0x3e598e0c	0.21245593
241	0xbd58e8ed	-0.05295651
242	0x3f1538b8	0.5828967
243	0x3ce143f0	0.027498215
244	0x3e0e9122	0.13922551
245	0x3e8f2d0c	0.27964056
246	0xbd4f32db	-0.05058561
247	0x3e3aa625	0.18227442
248	0x3e909349	0.2823737
249	0xbe288e05	-0.16460426
250	0x3d783a25	0.060602326
251	0x3b73c83a	0.0037198202
252	0xbe0715a1	-0.13191845
253	0x3f1eefc9	0.62084633
254	0x3e59c04b	0.2126476
255	0x3d895e3f	0.06707429

l1.bias f4 [8]
0	0x3f28268c	0.6568382
1	0x3ed99d4c	0.4250282
2	0x3eafa2c3	0.34303865
3	0x3eb42735	0.35186163
4	0x3eaaba83	0.33345422
5	0x3df81e8e	0.12115203
6	0x3ebec73f	0.37261388
7	0x3ec5e5b3	0.3865181

l2.weight f4 [8, 8]
0	0x3e9ffd0d	0.3124775
1	0x3f2c2a60	0.6725216
2	0x3edb7b94	0.4286772
3	0x3f0dce1d	0.5539263
4	0xbe10b477	-0.14131342
5	0x3f31b942	0.69423306
6	0xbe195c5e	-0.14976642
7	0x3fa5447b	1.2911524
8	0xbe01b0d4	-0.12665111
9	0xbeac13e1	-0.33608916
10	0xbe496265	-0.19666441
11	0x3e844e60	0.25841045
12	0x3f78d189	0.97194725
13	0x3de97260	0.113987684
14	0x3f4d4e57	0.8019766
15	0x3e55ddae	0.20885345
16	0x3f918e25	1.1371504
17	0x3f5bcd0c	0.8585975
18	0xbf1fd8dd	-0.6244028
19	0xbe8e5ed5	-0.27806726
20	0xbebaf2f8	-0.36513495
21	0xbef85b9e	-0.48507398
22	0xbf29a32f	-0.66264623
23	0x3e684248	0.22681534
24	0xbe074db9	-0.13213243
25	0xbe31c8fe	-0.17361829
26	0xbe1a7aba	-0.15085879
27	0xbe9df6b8	-0.30852294
28	0xbea7b910	-0.3275838
29	0xbe3b62b3	-0.1829937
30	0xbe93aaa4	-0.28841126
31	0xbe8307a2	-0.2559176
32	0x3ebd3f45	0.36962333
33	0x3dfd72f7	0.123754434
34	0xbed17706	-0.4091112
35	0xbf770773	-0.9649574
36	0x3f811f12	1.0087607
37	0xbf16a5fb	-0.58847016
38	0xbf5b84d9	-0.85749584
39	0x3f3b4b2c	0.7316158
40	0x3f8e994d	1.1140534
41	0x3f13e5a5	0.57772285
42	0xbe537998	-0.20651853
43	0x3f02a2cb	0.5102965
44	0x3e965cf2	0.29367787
45	0x3f1f942c	0.6233547
46	0x3cb85f9b	0.022506526
47	0xbf1cd1c5	-0.6125758
48	0x3e07c729	0.13259567
49	0xbe27cbf3	-0.16386394
50	0x3f52aa7b	0.8229138
51	0x3f52b6d6	0.82310236
52	0xbf74b53d	-0.9558905
53	0xbeb6aace	-0.3567719
54	0x3f5cc47b	0.86237305
55	0x3f19b617	0.6004347
56	0x3e310fd2	0.17291191
57	0xbdf8283d	-0.1211705
58	0xbe073db4	-0.13207132
59	0xbddbb4c1	-0.107278354
60	0xbe1b5d82	-0.15172389
61	0x3ea0b6ae	0.31389374
62	0xbd9f1110	-0.07766926
63	0xbea98da1	-0.33115867

l2.bias f4 [8]
0	0xbf019d3c	-0.50630546
1	0x3e0b2877	0.13589655
2	0x3f3a9090	0.72876835
3	0xbe89ad43	-0.2689
4	0x3f11c4b2	0.5694076
5	0xbe027f9d	-0.12743993
6	0x3ec5bc07	0.38620016
7	0xbe5de167	-0.21668015

l3.weight f4 [8, 8]
0	0x3dd5836c	0.10425457
1	0xbf5d26a0	-0.8638706
2	0x3ebdaf6d	0.37047902
3	0xbdc01270	-0.09378517
4	0x3e2b9a81	0.16758157
5	0xbf13ab48	-0.5768323
6	0xbeeda0b5	-0.46411672
7	0xbc72f495	-0.014828821
8	0x3ea53f79	0.32274988
9	0xbcea8cd2	-0.028631601
10	0xbf31f1a6	-0.6950935
11	0x3ea2d931	0.3180633
12	0xbf8570db	-1.0425066
13	0x3ee2cf57	0.44298813
14	0xbf55d924	-0.83534455
15	0xbe373278	-0.17890346
16	0xbf9da6c1	-1.2316514
17	0x3d4d92b3	0.05018873
18	0xbdfd349b	-0.12363549
19	0x3a169776	0.00057446153
20	0x3e292064	0.16516262
21	0x3e8bbf6d	0.27294484
22	0xbf3f1deb	-0.74655026
23	0xbd3742c4	-0.044741407
24	0xbe5435c2	-0.20723632
25	0x3d9732c4	0.0738273
26	0xbf5795be	-0.84212863
27	0xbd3585c6	-0.04431703
28	0x3f00fe41	0.5038796
29	0xbfa4c2f6	-1.2871997
30	0xbf6cd80c	-0.9251716
31	0x3e863701	0.2621384
32	0xbf318df4	-0.6935723
33	0xbe259e90	-0.16173768
34	0xbe09ee96	-0.1346992
35	0xbd1190ed	-0.035538603
36	0xbf33700c	-0.70092845
37	0xbf7c0ba5	-0.9845527
38	0x3f81d42b	1.0142874
39	0x3e8a24ec	0.26981294
40	0xbf228a32	-0.6349212
41	0xbfa9d607	-1.3268441
42	0x3f4bb7a2	0.79577076
43	0x3e3afd18	0.1826061
44	0xbd4a47f5	-0.04938503
45	0x3f18c017	0.59668106
46	0xbf4fa16b	-0.8110568
47	0xbeabd309	-0.33559445
48	0x3ea35d32	0.3190704
49	0xbfb7ee3d	-1.436958
50	0x3df5aa22	0.11995341
51	0xbe9f98f3	-0.31171378
52	0xbf838d7a	-1.027755
53	0x3e3627c1	0.17788602
54	0x3e39190d	0.18075962
55	0x3e37e30f	0.1795771
56	0xbf87e8d3	-1.0617927
57	0x3ead6dac	0.33872736
58	0xbf5315e5	-0.82455283
59	0xbe919de1	-0.28440765
60	0x3d5aaef9	0.053389523
61	0xbf2cd18f	-0.6750726
62	0xbf617513	-0.88069266
63	0xbe47d327	-0.19514142

l3.bias f4 [8]
0	0xbf0b8517	-0.54499954
1	0x3c241021	0.010013611
2	0xbee16a3d	-0.44026366
3	0xbada049c	-0.0016633454
4	0x3be8c8c1	0.00710401
5	0xbe2a3ab9	-0.16623963
6	0xbe34be56	-0.17650732
7	0xbda9e0cc	-0.0829483
