flask-server/chatbot/data.pth (torch, 13034 bytes, 6 tensors)

l1.weight f4 [8, 221]
00000000: 20a2 d1bd 16a7 183d c6e7 90bd a623 2f3d
00000010: d1ea 473d bdcc 2ebe 29e0 1ebc 7298 ecbd
00000020: efae 433e 5437 b2bd e3d0 bcbd 730f 303e
00000030: 467e b1bd 5200 da3d 9cda 543e b986 02bd
00000040: 2165 573e 7412 5e3e 0c51 023e 7978 323e
00000050: 0366 55be 1715 47be 19ea 993d 96d8 3b3e
00000060: 327b 843e 7d48 4fbc 0252 353e 32ac 21be
00000070: 9fe8 db3d bd13 423d 3a3e 803e f439 233e
00000080: 5f72 b23e 4b19 a03c 3885 bcbc 70ae 643e
00000090: 9644 583e d2d4 7a3e 0a81 2bbe cac8 0bbe
000000a0: 64a2 603e 2227 a1bb 4385 ff3d 0d55 543e
000000b0: f9d3 3fbd 48c6 7c3d d080 7c3e cb6a a93e
000000c0: abda a1bc 0c2b 4abe 48fc ec3d f05a 24be
000000d0: 0a1f 27be d5c6 353e aa96 6dbe 3954 473e
000000e0: f64c 49bd bc5c f5bd c633 a33e aef5 2fbe
000000f0: 018f f73d 919f 4fbd c736 50bc 5953 07bb
00000100: 81b5 e23d b286 373e b5fb 783e 242d 083e
00000110: 9be5 953e 6cee bb3d a20a 6d3e 0a92 c63d
00000120: e5d0 333e 1569 ce3c aeaf 113e f7f9 473e
00000130: a6f6 9d3e 95f8 af3e fee2 9f3e 5da7 f13c
00000140: b03f 4dbe 5fca 8c3c 84ee 533e a723 933e
00000150: 0a53 d33d eb81 903e 4874 023e fdf0 7f3e
00000160: 7d35 f63d 6e4e c0bd c760 403d 23a0 283c
00000170: a851 b13d a34e 4c3e 9f84 c6bd f784 973e
00000180: aec7 ad3e 2ed8 31ba 18be a73e 1a03 413e
00000190: c560 0d3e a2b0 5c3e 5d92 a6be 01db 9e3e
000001a0: c93f 63bc 8a45 d03c f261 7e3e 6236 6c3d
000001b0: 6c66 343e 0e4b 3f3e 70cd cebd b967 9cbe
000001c0: 130b 26be c07d b43d ff54 3f3e aaf7 a9bd
000001d0: 91f9 863e e72b 223e 8789 3d3e 9e36 763e
000001e0: 020a 39be 3005 c43e e8d5 a23e 62e9 92bd
000001f0: 2e63 2b3e 9c19 883e 518a 8f3e 4a28 3a3e
00000200: 8369 273e cb34 80be 2c28 f4bd 1ab6 913e
00000210: a13f 4d3d 211f 7cbd ae52 9b3e f2dd 2ebe
00000220: 42e0 3f3e 1530 773e 64e1 d33e 6847 1a3e
00000230: ffdd 33bb 0757 f8bd 86d6 3b3e 8e11 023e
00000240: 2d1c 8b3e 9627 01be d871 e13b d3fc 933e
00000250: e104 8e3b bc9a 533e a1f9 22be 4f7e ebbd
00000260: 215a 98be 757d 873e 9ec5 84bc 05f5 8fbd
00000270: a828 ac3e 821e f63d db60 6e3d eedf 123e
00000280: d0eb e4bd 305c 143e 59f9 0a3e 0e5e 143e
00000290: 5e9a 843e c9f2 c93c 735a 67be 88ff 56be
000002a0: f321 f13d 79e3 e73d dd2b 2b3e 1801 5f3c
000002b0: 9695 db3e 332c 95bc f74d 313e b8f1 2d3c
000002c0: 9dfe 42be 8bca 6dbd 8abe 173e e45f 623e
000002d0: 9164 013e 6133 03be 4618 eabb d2db 073e
000002e0: deef 973e 503c be3d febb d6bd c0c6 573d
000002f0: 6091 49bd 3625 50bd de4a db3d 67fa 1e3d
00000300: 97d7 b33e 9e1e 3cbe 8f2d 1dbe 2f82 6ebd
00000310: 29b6 1b3e 132f 483c 1c01 b63d e564 463d
00000320: 8996 e63d 00a8 453e 5725 3c3e 1957 d83d
00000330: bb05 ebbd 9d03 98bd fc29 6d3e 1338 9a3e
00000340: 550a 903d 6ccb c2be d485 1a3e 4eb5 c7bb
00000350: b42b 113e 936e 5f3e a8f2 18be c4d7 6ebe
00000360: cfa2 d7bd b439 ca3e 33c5 883e 58d6 e43e
00000370: 71aa 9d3c 7d9d f8bd ecdf a2bd 3cf2 9b3e
00000380: 93b2 10be 9d21 be3b 4575 b63e 0531 343e
00000390: eca0 143e c66a 613e c928 9a3e 46b5 883e
000003a0: a853 673e db38 b5bd 776d 8f3e 6030 2a3e
000003b0: 6141 0b3d 6aba b13d e9a3 66bd cc4a 333e
000003c0: 88de dd3d 60c8 3abe 46a5 6b3e ed14 2abe
000003d0: 5317 c4bc a199 b0bc ddfb 433d bc52 57bb
000003e0: 5c88 cd3d c7e4 00be 656b 66bd 47d7 793d
000003f0: 2fe8 003f b942 d53e 5ebf 8d3c 7cb8 023c
-0.10236001 0.03726872 -0.07075457 0.042758606 0.048807923 -0.17070289 -0.009696999 -0.11552514
0.191097 -0.08701959 -0.092195295 0.17193393 -0.08666663 0.10644592 0.20786518 -0.031866763
0.21034671 0.21686727 0.1272623 0.17428769 -0.20839696 -0.19441639 0.07515354 0.1834434
0.2587524 -0.01265156 0.17707065 -0.15788344 0.10737728 0.047382105 0.25047475 0.15940076
0.34852883 0.01954331 -0.023012742 0.22332168 0.21119913 0.24495247 -0.16748443 -0.13650814
0.21936947 -0.004917995 0.124765895 0.2073557 -0.046833012 0.061712533 0.24658513 0.3308929
-0.01975759 -0.19742984 0.11571556 -0.16050315 -0.16320434 0.1775163 -0.23202005 0.19465722
-0.04914566 -0.11980578 0.31875437 -0.17183563 0.12087823 -0.050689284 -0.012708372 -0.0020649044
0.110697754 0.17922476 0.24314769 0.1329847 0.29276738 0.09176335 0.23148587 0.096958235
0.17560156 0.025196591 0.14227173 0.19528948 0.3085224 0.3436934 0.3122787 0.02949875
-0.20043826 0.017186342 0.20696455 0.28738138 0.10318573 0.2822412 0.1273967 0.24994273
0.12021921 -0.09389959 0.046967294 0.010292086 0.08658153 0.19951873 -0.09693264 0.29593632
0.33941406 -0.00067842274 0.32762218 0.1884884 0.13806446 0.21551755 -0.3253354 0.31026462
-0.013870188 0.025423784 0.2484205 0.05766905 0.17617196 0.18680975 -0.10097778 -0.30547884
-0.16215162 0.088130474 0.18684767 -0.08299191 0.2636228 0.1583706 0.18509494 0.24044272
-0.18070224 0.38285208 0.31803823 -0.071734205 0.16737053 0.26582038 0.28035215 0.18179432
0.16348843 -0.25040278 -0.11921725 0.28459245 0.05010951 -0.061553124 0.30336517 -0.17076853
0.18737891 0.24139436 0.41382897 0.15066302 -0.0027445552 -0.12125974 0.18343553 0.12702009
0.27169934 -0.12612757 0.0068800263 0.28903827 0.0043340777 0.20664495 -0.15915538 -0.11498701
-0.29756263 0.26462904 -0.016207512 -0.07029156 0.33624768 0.12017538 0.058197837 0.14343235
-0.1117779 0.14488292 0.13571681 0.14489004 0.25899023 0.024651902 -0.22593097 -0.20995915
0.117740534 0.11322684 0.16715951 0.013611101 0.42887563 -0.018209552 0.17314897 0.010616712
-0.1904244 -0.05805449 0.14818779 0.22106892 0.1263602 -0.12812568 -0.007144007 0.13267449
0.29675192 0.092888474 -0.104850754 0.052679777 -0.049210906 -0.050816737 0.10707639 0.03881302
0.3512542 -0.18371055 -0.1534941 -0.05822962 0.15206207 0.012218255 0.0888693 0.048436064
0.11259181 0.19302368 0.18373619 0.105634876 -0.114757024 -0.07422564 0.23160547 0.30120906
0.07033221 -0.38045824 0.15090114 -0.0060946112 0.14176828 0.21819524 -0.14936316 -0.23324496
-0.105291 0.3949715 0.2671295 0.4469478 0.019246312 -0.121394135 -0.07952866 0.30458248
-0.1413062 0.005802347 0.35636345 0.17596824 0.14514512 0.22013387 0.30109242 0.267008
0.22590506 -0.08848735 0.28013203 0.16620016 0.033997897 0.08678134 -0.05630866 0.17509001
0.1083346 -0.182405 0.23012266 -0.16609545 -0.023936903 -0.021557631 0.047847617 -0.003285571
0.10035774 -0.12587272 -0.056254763 0.06099632 0.50354284 0.41652468 0.017303165 0.007978555

l1.bias f4 [8]
00000000: b000 243e 3493 373f 7ea4 063f f4ab d83e
00000010: 6c38 183f 97ee bd3e 2661 7d3e b5d4 b03e
0.16015887 0.7170899 0.52594745 0.4231869 0.5946109 0.37096092 0.2474409 0.34537283

l2.weight f4 [8, 8]
00000000: 2778 15be a676 933f bb59 293f 4f4d ae3e
00000010: 3592 343f ec8e 983e 3180 16bf 0ddd 0cbf
00000020: 6215 b2bd d0e2 423d 6a5a 403f 64c4 253f
00000030: ef78 bf3d 3b21 2bbf d4ad 423f 9908 f33d
00000040: caa5 72bf 402d dd3d 6639 b2bd 1a4f 023f
00000050: c855 503f b116 51be 23f5 ed3d a2f0 363e
00000060: 2657 f1bd 5634 f43e 5951 aebe 3d52 0f3e
00000070: b4e3 1e3f 9709 573f 61b5 13bf fb0b 573f
00000080: 2c8b 463e 0a73 e73d 7834 76bf c57b 1f3f
00000090: f4f5 903e 83ca cc3e c167 413f bffe 603f
000000a0: e64f 0b3e b794 3b3d fe2d 093d f93c 29bf
000000b0: 47e9 c53e 025a 663f ca19 a2bc 17ce 4a3f
000000c0: 4cfe 0ebf fd43 48bf 949a b93e eb8f f33e
000000d0: 5db5 5f3f 50bd 87be bb86 1b3e 2401 253e
000000e0: acfa 143f 49af ccbd 736b 323f b950 4d3a
000000f0: 9a7e ebbe 8e57 353f edf2 2f3f 5fad a63e
-0.14596616 1.1520584 0.6615254 0.34043357 0.70535594 0.2979654 -0.58789355 -0.55024797
-0.08695485 0.047579587 0.7513796 0.64752793 0.09349238 -0.6684758 0.7604649 0.11866874
-0.94784224 0.107996464 -0.08702354 0.5090195 0.8138089 -0.20418812 0.11619022 0.17865232
-0.117842 0.4769618 -0.34046438 0.13996215 0.620662 0.8399901 -0.5769864 0.84002656
0.19389027 0.11301239 -0.9617381 0.6229823 0.28312647 0.39998254 0.7554894 0.8788871
0.13604698 0.045796122 0.033491127 -0.6610866 0.3865454 0.8998109 -0.019787688 0.7922072
-0.55856776 -0.7822874 0.36250746 0.47570738 0.87386113 -0.2651162 0.15188114 0.16113716
0.58194995 -0.099943705 0.69695204 0.0007832158 -0.45995027 0.7083672 0.6873005 0.32554147

l2.bias f4 [8]
00000000: 2bdc c73e 1049 a53d b475 033f 279e f63e
00000010: fb37 103e 4568 043e c415 c63e 6935 24be
0.39035162 0.08070576 0.51351476 0.48167536 0.14083855 0.129304 0.3868848 -0.16036

l3.weight f4 [8, 8]
00000000: c3fc b0bf ad84 ec3e a437 8cbe 90b3 24bf
00000010: 95b3 133f 4d54 8dbf 3d39 21bf eb17 c0bd
00000020: 7428 49bf 5630 68bf 3a3f fdbe 57b0 d53e
00000030: d177 ea3e 0a76 38bc 96f4 bcbd f42f 8a3d
00000040: 6fdb 313d 7a42 c83e 7c01 d7bd 23a3 48bf
00000050: 483a b2be 12a5 8ebf a1f1 a3be 4cc1 993d
00000060: 2a50 8ebf a7a0 323e 4df4 053f 1445 373c
00000070: f913 d83e 9bb0 31bf 740f 123f c04d 17bf
00000080: 2aec ff3d a0e5 b4bf 82c3 933e 1949 363f
00000090: ee33 9eb9 dd29 583e 43b5 e4be 4c6d 94bf
000000a0: a821 193f fe57 ad3c 621b 143f 1f3a a83d
000000b0: 03ca 34bf 1e16 a4bf b94f e13e 9aee a5bf
000000c0: f36e 163f 6711 82bf 5939 82bf e3cf b83e
000000d0: b96f 81bf 40cb a8bd 9d93 1bbf 9501 df3c
000000e0: 30dd 9ebf 68b5 7cbc 20d7 27bf 6c03 bebe
000000f0: 6703 a4be 7093 6c3e ddec b33d fc6a a33e
-1.3827137 0.46194974 -0.273862 -0.6433649 0.57695895 -1.1041352 -0.62977964 -0.09379562
-0.7857735 -0.90698755 -0.494623 0.417361 0.45794538 -0.011258611 -0.092263386 0.067474276
0.04342216 0.39113218 -0.1049833 -0.78373927 -0.3481009 -1.1144125 -0.32020286 0.075075716
-1.1118214 0.17444097 0.523259 0.011185903 0.42202738 -0.69410104 0.5705483 -0.5910301
0.124962166 -1.4132576 0.28860098 0.7120529 -0.000301748 0.2110972 -0.44669542 -1.1595855
0.5981698 0.021160122 0.5785428 0.08214211 -0.70620745 -1.281925 0.44006136 -1.296344
0.58763045 -1.0161561 -1.0173751 0.36096105 -1.011222 -0.08241892 -0.60772115 0.027222434
-1.2411251 -0.01542411 -0.6556263 -0.37111986 -0.32033846 0.23103118 0.087854125 0.3191756

l3.bias f4 [8]
00000000: fb3f 78be 24db 3e3d fddc 3c3e 7247 99be
00000010: ef4d e03d 774c 64bd 8e14 e43e 647b 203e
-0.24243157 0.046595708 0.18443675 -0.2993732 0.10952365 -0.055736985 0.44546932 0.1567207
