flask-server/chatbot/data.pth (torch, 12458 bytes, 6 tensors)

l1.weight f4 [8, 210]
00000000: 0435 a43e 5936 923e 4856 cdbd e3c6 d83e
00000010: f714 123e 64b4 12be 7e44 ff3d 4c74 3d3e
00000020: 047b 1dbd d10b 49be 3c51 58bd 8183 143e
00000030: 1fa6 ee3d c820 d33d 45da 883e 0cc9 cd3c
00000040: 167f 2b3e 28eb 56be 2248 993e cd5a 6a3e
00000050: 4c59 1f3e 1393 933e a990 373e 78eb 113e
00000060: 2bdc 5d3e 94c0 ca3d 14b8 373e 4055 7fbd
00000070: 366e f63e 6a4e 573e ba66 983e 410d aabe
00000080: 56c4 613e 9915 a93d 0018 bf3e c122 4d3e
00000090: 4f6c 843e 8a7b d13d f002 9c3d 92a0 173e
000000a0: ef10 8a3d 1af8 923e ab07 273e 45e3 73be
000000b0: a505 80be 81bb a63e 75fd 823e f5d6 96bd
000000c0: bcc1 043e c5f3 243e d221 313e b9d4 1a3e
000000d0: 33d0 86bb cae8 0c3e b074 b3bd f74e 433c
000000e0: 0a42 783e afcd ab3e 9c1b 5fbd 3343 a5bd
000000f0: 8b91 0a3e 757f 093e 07c0 db3d 418e f93d
00000100: 89ef 453e b6b6 9a3e 811f 22bd 82f0 5a3e
00000110: 30b3 1ebe 8d4f ea3e c8ff 46be 1255 9abd
00000120: 0f31 583e 02c2 f13d ad26 6d3e d1b3 b33d
00000130: 33a1 a93e 9408 be3e 4312 333e 6f76 213e
00000140: 71c9 783e f24b d93d 53e5 c53e 2145 8c3e
00000150: 4fb5 383e f9eb 343e 3779 21bd c1a9 443e
00000160: 295d 9bbd 9504 723e 5a5c a73e b7ca bf3e
00000170: 9b8a 9f3e 4423 b53e d823 edbc 86c8 fd3d
00000180: 6d08 c23d 5683 74bd 0426 9e3e 7ae3 573e
00000190: 7b84 d63d 4e0e cd3e 3c9f 40be 43ee 4b3e
000001a0: f0a5 173e e656 283e c3e1 a43e 1346 313e
000001b0: 865a cd3e 9d0d 943e da20 673e 769d 973e
000001c0: 4b45 433e 3185 383e de5e 943e 061f 703e
000001d0: 2c24 633e cfe9 583d b916 033e 20dc 02bd
000001e0: 0867 883e 689c 87bc b6f1 8b3e d609 0c3d
000001f0: 51ff cebd 945d b93e 98ad f53d d2c0 1e3e
00000200: face b43e fdf9 3a3d e128 923e b3d5 493d
00000210: b488 9dbe 2e52 45be 6ccd 413e 5040 bf3d
00000220: 2652 723d dc54 2d3d 5073 a23e a048 003e
00000230: 4ab7 0c3e e895 4c3e 8462 af3d 7d3b 963e
00000240: 074a 8d3d 81de 923e 8d7c 3f3e c5be 333e
00000250: 9511 2f3e ab7c 2d3e 73a3 a13e 380c 30be
00000260: 98f7 663e 7e97 0c3e 0423 813e 7f94 6c3e
00000270: 2c05 033f a043 953e 4241 183e 48ce 6a3e
00000280: 9af0 fd3d fab4 cfbd f8ff edba 373a ed3d
00000290: 69bf e23e 9121 d73d ca36 853e 0e12 c43c
000002a0: 2658 313e 4785 433e 8508 8e3d 426f 013c
000002b0: 72f7 8e3e ff7a 4a3e ef01 d13d 7fdf d33e
000002c0: 7415 1b3e abc5 663e 47af dfbc 9c35 173e
000002d0: cd34 bc3d cb46 2c3e 0d02 da3d e5d1 ca3e
000002e0: 7843 4a3e 8079 2a3e 71ce 5fbd ac72 c1bd
000002f0: 2d25 2c3e f08e 14be bea2 af3d 1a96 fcbc
00000300: 33a3 6a3e 6ee6 8c3e 9e70 193e 390f 173a
00000310: 9b67 083e 76a1 c63e 6b36 273e 80ac 2b3e
00000320: 27df 393e 925a 8e3e 8e2a 873e f996 663e
00000330: 1972 3c3e d61e 413e a6c9 6bbe 3e17 853e
00000340: 6e81 ac3e 7874 2c3e ca0a 4cbb cb0a 7d3d
00000350: bd93 1ebe e9ab 30bd 7477 68bd 8c5e 4ebe
00000360: 2d9a 413e 4bc5 843e 70ba 433e 66ae afbe
00000370: b59c 41be 07be 3f3c d66f 92bc 9f16 843e
00000380: 458f a93e d47c 5d3d 0d0f 6b3e be85 093e
00000390: 3ee0 163e fb99 323e b780 65bd 4b64 e13e
000003a0: 7368 f43d 019c 383d 6f55 8f3d e957 59bc
000003b0: 8371 733e fa3f ab3d 8e59 a83d b448 403e
000003c0: 4dbb 45be 9471 8a3e e43f 103e 4a82 6d3d
000003d0: cead 71bc ac75 d23d 8ff8 983e 703c ccbd
000003e0: b093 60be ea97 e73d cb17 243e 01fa c63d
000003f0: 6549 983e e197 afbe 33d4 0c3e 65e9 e13d
0.32071698 0.2855709 -0.100262225 0.4233924 0.1426581 -0.14326626 0.12464236 0.18501395
-0.038447395 -0.19633414 -0.052811846 0.1450329 0.11652779 0.10308987 0.26729026 0.02512028
0.16747698 -0.20988142 0.29937845 0.228862 0.15561408 0.28823146 0.17926277 0.1424998
0.21666019 0.099000126 0.17941314 -0.06233716 0.4813096 0.21026006 0.29765874 -0.33213237
0.22047552 0.082560726 0.37322998 0.20032789 0.25863883 0.10228641 0.07617748 0.14807346
0.06741511 0.2870491 0.16311519 -0.23817165 -0.25004306 0.3256493 0.25583997 -0.073652185
0.12964529 0.16108616 0.17298058 0.1512021 -0.0041141747 0.13760677 -0.08762491 0.011920682
0.24243942 0.33555362 -0.05446969 -0.08069458 0.13532083 0.13427527 0.10729986 0.12185336
0.19329657 0.30217522 -0.039580826 0.21380809 -0.15498042 0.45763817 -0.1943351 -0.07535757
0.21112464 0.11804582 0.23159285 0.08774532 0.33130798 0.3711592 0.17487435 0.15767835
0.24295594 0.106101885 0.38651523 0.2739649 0.18037914 0.17668141 -0.03942224 0.19205381
-0.07586128 0.2363456 0.32687646 0.37459347 0.31160435 0.35378468 -0.028947756 0.123917624
0.09474263 -0.059695564 0.3088838 0.21082869 0.104744874 0.40049976 -0.18810743 0.19915108
0.14809394 0.16439399 0.32203493 0.17311887 0.40108126 0.28916636 0.22571126 0.2961232
0.19069402 0.18019558 0.28978628 0.23449335 0.22181767 0.052957352 0.12801637 -0.03194821
0.26641107 -0.016554072 0.27332848 0.034189068 -0.101072915 0.36204207 0.11996001 0.15503243
0.3531416 0.045648564 0.28546813 0.049276065 -0.3076836 -0.1926963 0.18926018 0.093384385
0.059160374 0.042317256 0.317286 0.12527704 0.13741794 0.1997906 0.08563712 0.2934226
0.06898885 0.28685382 0.18699856 0.17553242 0.17096551 0.16942088 0.31570014 -0.17192161
0.22555387 0.13729665 0.25222027 0.23103522 0.51179767 0.29153156 0.14868644 0.22930253
0.12399407 -0.101419404 -0.001815795 0.11583369 0.4428666 0.10504449 0.26018363 0.02393439
0.17318782 0.1909381 0.06935219 0.007900061 0.2792316 0.19773482 0.10205447 0.4138145
0.15144902 0.22536342 -0.027305258 0.14766544 0.091897584 0.1682388 0.106449224 0.39613262
0.197523 0.16647911 -0.054640237 -0.094457 0.16811056 -0.14507651 0.085759625 -0.030833293
0.22913818 0.27519554 0.14984366 0.0005762461 0.13320772 0.3879506 0.16329353 0.16765022
0.18151532 0.27803475 0.26399654 0.22518529 0.184029 0.18859419 -0.23026142 0.25994295
0.33692497 0.16841304 -0.003113436 0.06177787 -0.15486045 -0.043132696 -0.056754544 -0.20153254
0.1890647 0.25931773 0.19114089 -0.34312743 -0.18907435 0.011703021 -0.017875593 0.2579851
0.33117118 0.054074124 0.2295496 0.13429925 0.14733979 0.17441551 -0.056030955 0.4402183
0.119339846 0.045070652 0.06998717 -0.013265588 0.2377377 0.08361812 0.08220206 0.18777734
-0.19309731 0.27039778 0.14086872 0.05798558 -0.014750911 0.102763504 0.29877135 -0.09972465
-0.21931338 0.11308272 0.16024701 0.09715653 0.29743496 -0.34295562 0.13752823 0.110308446

l1.bias f4 [8]
00000000: bf8c e93e b231 b03e c25c 013f 8672 933e
00000010: 1d04 ea3e 4830 123f a0a3 313f bbae cd3e
0.45615193 0.34412915 0.5053216 0.28798312 0.45706263 0.5710492 0.69390297 0.4017237

l2.weight f4 [8, 8]
00000000: 1ff3 dc3e 9f51 813f b192 2e3e 7e65 153f
00000010: ed3c 553f 3d42 96be 1c2d ae3e 3ee2 3bbf
00000020: 1b04 ce3e 5959 5d3f dbf7 163f e184 463f
00000030: d1bd 4f3f 878b 12bf 659b b13e 14ed d3be
00000040: 06e9 f3bd e9ac 303f 69da 6e3f 501e 983e
00000050: a080 c33d 2631 4abf 68cb b93d fa92 783f
00000060: 81eb 50be 18a5 863e a48b 103f 420a 02bf
00000070: 35a2 843f a642 0b3f 188e 963f d310 8fbd
00000080: cad9 d03d 918e fabe ca32 0b3f 1606 9bbe
00000090: 14e7 2cbf 37bf 513f de6b 3e3f 5d91 933f
000000a0: 2b87 523e 1d9b 8cbe 73f2 83be ac09 523e
000000b0: c840 c43e 9268 ad3e a41e 203f 4b86 72be
000000c0: bf00 583f 3c9e 82be ce85 01bf 0ee3 233f
000000d0: 1e15 3bbe 4b1f 1c3f 51a8 3dbf 9642 1a3f
000000e0: 6872 9fbe 5221 893e 52e0 abbe 689c 87be
000000f0: da33 483d 95e7 0a3e 1021 583e 69a4 bcbd
0.43154237 1.0103034 0.17048146 0.5835799 0.8329609 -0.2934741 0.3401879 -0.73392093
0.40237507 0.8646446 0.5897195 0.7754651 0.8114901 -0.5724415 0.3468887 -0.41391814
-0.1190968 0.6901384 0.9330202 0.29710627 0.09546018 -0.78981245 0.09072 0.9709927
-0.20402338 0.26297832 0.56463075 -0.507969 1.0362002 0.5439857 1.1762114 -0.06985631
0.1019779 -0.48936895 0.5437437 -0.3027808 -0.675401 0.81932396 0.7438334 1.1528736
0.20559375 -0.27462092 -0.25770912 0.20511502 0.38330674 0.33868843 0.62546754 -0.23684041
0.8437614 -0.25511348 -0.50594795 0.6401833 -0.18269774 0.6098525 -0.74084955 0.6025785
-0.31141973 0.26783234 -0.3356958 -0.26486516 0.048877575 0.13564904 0.21106362 -0.09211046

l2.bias f4 [8]
00000000: 49e1 443e 03c0 ff3d bd89 6e3e e7ed f83e
00000010: 0a79 de3e a43f 923d a037 e13e 07f5 adbe
0.19226564 0.12487795 0.2329473 0.48619005 0.4345172 0.07141045 0.4398775 -0.33976004

l3.weight f4 [7, 8]
00000000: 5493 bf3e 5ebc ea3d c294 4dbf 6deb a2be
00000010: 1987 a0bf 4767 b03d fec9 bd3e 8619 7e3e
00000020: e5ab 9bbd f39f 983e 31db d53e 1591 4bbf
00000030: 6cc7 94be 3aad 4ebf 8f66 85bc 6954 b13e
00000040: e276 8abe 5639 3abd 4c56 70bf 94b0 cb3d
00000050: 67fa 4bbe 7b98 bb3d 67f6 de3e 2258 853d
00000060: 739e 7abf 46e2 24bf 33f2 30be b986 7abf
00000070: 821c 973e 67a8 293e 38f7 1d3f 4637 eabd
00000080: 0550 adbf 472a 96bf cb1d 07bf bdef 0a3f
00000090: 7c36 463f d279 3e3e 6a9a f5be a020 9b3e
000000a0: 568a d63e 7758 023f 7bf3 41be 79b5 983e
000000b0: a522 88bf d2ac b03e e5f7 79bf ad2d 823e
000000c0: e154 dcbe a3bc 72be feb2 d43e 383b 183f
000000d0: ee15 ab3d 7f22 c7be 6b60 73bf 1b1e b03e
0.3741709 0.114617094 -0.8030511 -0.3182024 -1.2541229 0.086134486 0.3706817 0.24814424
-0.07601146 0.29809532 0.41768792 -0.7951825 -0.29058397 -0.8073307 -0.016284255 0.34634712
-0.27043825 -0.045464836 -0.9388168 0.09945789 -0.1991974 0.09159943 0.43547365 0.065109506
-0.97898024 -0.64407766 -0.17279892 -0.9786182 0.29513937 0.16568147 0.6170535 -0.11436324
-1.3540045 -1.1731652 -0.52779835 0.5427206 0.77426887 0.18601158 -0.4796937 0.30298328
0.41902417 0.50916237 -0.18940537 0.29825953 -1.0635573 0.3450685 -0.9764388 0.25425473
-0.43033507 -0.23704772 0.4154281 0.5946536 0.08353792 -0.38893506 -0.95069 0.3439797

l3.bias f4 [7]
00000000: 5bec 68be 146d 1abe 3f9f 10be 3e05 a3be
00000010: d73d b33c e62b 423e e23e 79be
-0.22746412 -0.15080673 -0.14123248 -0.31839937 0.021880073 0.18962058 -0.24340394
