flask-server/chatbot/data.pth (torch, 13034 bytes, 6 tensors)

l1.weight f4 [8, 221]
0	0x3eb85e7c	0.36009586
1	0x3eaaf89c	0.333928
2	0xbe04c641	-0.12966253
3	0x3e6fd5c9	0.23421396
4	0x3e2606cc	0.1621353
5	0xbd798aca	-0.060923375
6	0xbd6181a3	-0.05505527
7	0xbd329947	-0.043603208
8	0x3e515e32	0.20446089
9	0xbd59d6ee	-0.05318349
10	0xbc210698	-0.009828232
11	0xbe9e6872	-0.3093906
12	0x3e0b6b5e	0.13615176
13	0xbc117b11	-0.008879439
14	0x3e914b5b	0.28377804
15	0x3e5ae9fc	0.2137832
16	0x3e1e474c	0.15456885
17	0xbe914db2	-0.2837959
18	0x3dca633c	0.09882209
19	0x3deb295f	0.114825
20	0x3e96d943	0.29462633
21	0xbea2b39d	-0.3177766
22	0x3ea9270c	0.33037603
23	0x3eb1f913	0.3476034
24	0x3e8eae35	0.27867284
25	0x3e14ac3a	0.14518824
26	0x3e72752a	0.23677507
27	0xbe61419e	-0.21997687
28	0xbead22f1	-0.3381572
29	0x3e86af1c	0.26305473
30	0x3e5c0535	0.21486361
31	0xbeb095dc	-0.34489334
32	0xbc246303	-0.010033372
33	0x3dd69559	0.104777046
34	0x3e6cf2e8	0.23139536
35	0x3e8cc6fc	0.27495563
36	0x3df0cbe3	0.11757638
37	0x3e6f585c	0.2337355
38	0x3e778d17	0.24174915
39	0x3e65cbb1	0.22440983
40	0x3e5c0428	0.2148596
41	0xbdf3258f	-0.11872398
42	0x3e17dd6a	0.14830557
43	0x3e4fad4c	0.20280951
44	0xbd877496	-0.06614034
45	0x3d852ae2	0.0650232
46	0xbde71689	-0.11283595
47	0x3e5689a9	0.2095095
48	0xbe15b50e	-0.14619848
49	0x3dfb1876	0.12260525
50	0x3db70996	0.08937375
51	0xbe678c1c	-0.22612041
52	0xbe6820e2	-0.22668794
53	0x3e4bc4c1	0.19899274
54	0x3e56e62a	0.20986238
55	0x3e396c81	0.18107797
56	0xbdd13ba7	-0.10216456
57	0xbd41b972	-0.047295995
58	0x3ea7fb69	0.32808998
59	0xbe3bca5c	-0.18338913
60	0x3d84f6a0	0.064923525
61	0x3e5052c2	0.2034407
62	0xbd575056	-0.05256685
63	0xbc0c4496	-0.008561274
64	0x3ea62e0f	0.32457015
65	0x3e0a3fa8	0.13500845
66	0x3de16359	0.11005277
67	0x3da22506	0.07917218
68	0x3daeee69	0.08541567
69	0x3d6ba22f	0.057527717
70	0x3e4c055f	0.19923924
71	0x3d626fb2	0.055282302
72	0xbdabba49	-0.083851404
73	0x3e4900e0	0.1962924
74	0x3e2d4408	0.16920483
75	0x3e653990	0.2238524
76	0x3e8e23f3	0.27761802
77	0x3eb079b8	0.34467864
78	0x3ea0cec4	0.3140775
79	0x3d9c1559	0.07621259
80	0xbd9e36d4	-0.077253014
81	0x3d1303df	0.035892364
82	0x3e28c90e	0.16482946
83	0xbe83cbdd	-0.25741473
84	0xbe0e1146	-0.13873777
85	0x3e65c6af	0.22439073
86	0x3e5f81c9	0.21826853
87	0x3e4c981b	0.19979899
88	0xbeaa5e19	-0.33274916
89	0xbc82d7f4	-0.015972115
90	0x3e892f4d	0.267939
91	0xbd9cca17	-0.07655733
92	0x3e9cb540	0.30607033
93	0xbeb3a587	-0.35087225
94	0x3e0ad37c	0.13557237
95	0x3ea44218	0.32081676
96	0xbd8cbf50	-0.068724275
97	0xbe02f6dd	-0.12789483
98	0xbdc1623e	-0.09442566
99	0x3e7bb3ab	0.24580257
100	0xbe597097	-0.21234356
101	0x3df32c3f	0.11873674
102	0x3f086c84	0.5329058
103	0x3e5d31c0	0.2160101
104	0xbca8aba5	-0.020589659
105	0x3dde8e27	0.10866957
106	0xbd78159e	-0.06056749
107	0xbe553841	-0.2082224
108	0xbde7a092	-0.11309923
109	0x3e53ac19	0.20671119
110	0x3e10ea6e	0.14151928
111	0x3ebe585e	0.37176794
112	0xbe825673	-0.2545658
113	0x3e90aa52	0.28254944
114	0x3debdf28	0.11517173
115	0x3d9fbf43	0.07800152
116	0x3df7c341	0.120977886
117	0x3e6ec364	0.23316723
118	0xbe931290	-0.287251
119	0x3e473989	0.19455542
120	0x3e9a02c2	0.3008023
121	0x3e6b9601	0.2300644
122	0x3e9279eb	0.2860864
123	0x3e772c30	0.2413795
124	0x3dd68553	0.10474648
125	0x3e834a87	0.25642797
126	0xbe9752c9	-0.29555348
127	0xbd2de573	-0.042455148
128	0x3e133686	0.14376268
129	0x3e2feed9	0.17180957
130	0xbd966d9a	-0.073451236
131	0xbba07d2d	-0.0048977346
132	0x3c559923	0.013036999
133	0x3e5f9e07	0.21837626
134	0x3d44ecd4	0.04807742
135	0xbdc9b921	-0.09849764
136	0xbeadc204	-0.33937085
137	0x3e426867	0.18985139
138	0xbe1cbba3	-0.15305953
139	0xbd8d1208	-0.06888205
140	0x3e8fd7c4	0.28094304
141	0x3dd371a5	0.1032441
142	0x3c42c14b	0.011886905
143	0x3e4c3e24	0.1994558
144	0x3ed4cd6b	0.4156297
145	0xbe934d9d	-0.28770152
146	0x3de1d337	0.11026614
147	0x3e068444	0.13136393
148	0xbe00c1cb	-0.12573926
149	0xbd9e86bc	-0.07740542
150	0x3dc3e5ed	0.09565339
151	0x3e5c18b5	0.214938
152	0xbe94a2c7	-0.2903044
153	0x3e00426b	0.12525336
154	0x3e1aabfc	0.1510467
155	0x3ecba0be	0.39771074
156	0x3e78fb13	0.24314527
157	0x3e0cfdfd	0.13768764
158	0x3dd84c14	0.10561386
159	0xbe84873c	-0.25884426
160	0x3ee7ca15	0.45271364
161	0x3d3f5798	0.046714395
162	0xbe240eb0	-0.16021228
163	0x3df88d42	0.12136318
164	0x3e3455e7	0.17610894
165	0xbcc5a005	-0.024124155
166	0x3e6de0c4	0.23230273
167	0x3e811499	0.25211027
168	0x3d3286fe	0.04358577
169	0x3e6614f5	0.22468932
170	0xbe4f5f9f	-0.2025132
171	0xbd628769	-0.05530492
172	0x3e850f75	0.25988355
173	0x3df4d250	0.119541764
174	0x3e1b0104	0.15137106
175	0xbc4eedb1	-0.012629912
176	0x3e74442b	0.23854129
177	0x3e1abd2c	0.15111226
178	0x3bab2ad2	0.0052236104
179	0x3e7d469a	0.24733964
180	0x3d6faf30	0.05851668
181	0x3e25554e	0.16145822
182	0x3e472a2a	0.19449678
183	0xbe4d2f4b	-0.20037572
184	0xbc3f5ca0	-0.011679798
185	0xbd6647bb	-0.05622075
186	0x3eab320e	0.33436626
187	0x3cf2de10	0.029646903
188	0x3ea02c82	0.31283957
189	0xbe8c8f9d	-0.27453318
190	0x3dfb6d35	0.12276689
191	0x3dbb8d0f	0.09157764
192	0x3e880e40	0.26573372
193	0x3e59b914	0.21262008
194	0x3e00b4dd	0.12568994
195	0xbdd93f62	-0.106077924
196	0xbd7c0d72	-0.06153626
197	0x3e460aa8	0.19340003
198	0x3db56fb8	0.08859199
199	0xbe0c6938	-0.13712013
200	0x3db17003	0.08663943
201	0x3e77ebc8	0.24211037
202	0x3e2673b9	0.16255082
203	0x3e9a9ca3	0.3019763
204	0x3e7c7b65	0.24656446
205	0xbda40ceb	-0.080102764
206	0x3e0d3eae	0.13793442
207	0x3e854701	0.26030734
208	0x3c08dfcf	0.008354141
209	0x3eafc79c	0.34331977
210	0xbe5d62ab	-0.2161967
211	0x3e8afb54	0.27144873
212	0x3e23ab06	0.15983209
213	0x3da519ff	0.08061599
214	0x3e8c8ad3	0.27449664
215	0x3e7d5754	0.24740344
216	0xbbb49f8d	-0.005512184
217	0xbce83388	-0.028344885
218	0x3e4ae866	0.19815215
219	0x3da6204b	0.08111628
220	0x3e217972	0.15768984
221	0x3eaa66ee	0.33281654
222	0x3eacf5f3	0.33781394
223	0xbe5bf0a6	-0.21478519
224	0x3ecf01bf	0.4043102
225	0x3e696d48	0.22795594
226	0xbe42b37d	-0.19013782
227	0xbcd236e9	-0.025660949
228	0xbd70c396	-0.058780275
229	0x3e12a40c	0.14320391
230	0xbe9cfa25	-0.30659595
231	0xbe004a9c	-0.12528461
232	0xbdb6aa5a	-0.08919211
233	0x3ded4494	0.11585346
234	0x3def544e	0.11686002
235	0x3e8d6b72	0.27621037
236	0x3e3ba5f0	0.18325019
237	0x3e17b26c	0.14814156
238	0x3d42c09e	0.047546975
239	0x3cf672ce	0.03008404
240	0xbe2529f2	-0.16129282
241	0x3e833d50	0.25632715
242	0xbec7cfa5	-0.39025608
243	0x3e882192	0.26588112
244	0x3e67aa67	0.22623597
245	0xbe737d14	-0.23778182
246	0x3e5bd21f	0.21466874
247	0x3e807255	0.25087228
248	0xbe00494a	-0.12527958
249	0xbd16b7cf	-0.036796387
250	0x3ecc45a5	0.39896885
251	0x3e3eb6d8	0.18624437
252	0x3df878ce	0.12132417
253	0x3f2e9467	0.68195194
254	0x3c0c5faf	0.008567735
255	0x3e0ca246	0.13733777

l1.bias f4 [8]
0	0x3e67b499	0.22627486
1	0x3e9d584c	0.30731428
2	0x3f3768b1	0.7164412
3	0x3e8521fd	0.26002494
4	0x3e904c3b	0.2818316
5	0x3ed1ec6c	0.41000688
6	0x3e97bc47	0.29635832
7	0x3f227d9b	0.6347291

l2.weight f4 [8, 8]
0	0xbdd4a4c5	-0.1038299
1	0x3ee89485	0.4542581
2	0x3f21a531	0.6314269
3	0xbf4c6dad	-0.7985485
4	0x3c185c13	0.009299296
5	0xbf72eea6	-0.948954
6	0x3f1ee2c1	0.6206475
7	0x3f352d1e	0.7077197
8	0x3f664a73	0.8995735
9	0x3e2cf935	0.1689194
10	0xbefe5da3	-0.49680814
11	0x3f04359b	0.51644295
12	0x3f48ceb7	0.7844042
13	0x3d9b8bfa	0.07595058
14	0x3f5fa55e	0.87361705
15	0x3f86be28	1.0526781
16	0x3d88eae4	0.06685427
17	0x3fa80c53	1.3128761
18	0x3d88d920	0.06682038
19	0xbf191384	-0.59795403
20	0xbeac077c	-0.3359946
21	0xbd5a6032	-0.053314395
22	0x3ebc829a	0.3681839
23	0x3ef6f6fe	0.48235315
24	0xbe51524b	-0.20441549
25	0xbe9439c0	-0.2895031
26	0xbe88da70	-0.26729155
27	0xbd943e6a	-0.07238467
28	0xbebe0c7a	-0.37118894
29	0x3e217b3a	0.15769663
30	0x3e5a597b	0.21323197
31	0x3e048020	0.12939501
32	0x3f2704e8	0.6524186
33	0x3f8bff65	1.0937315
34	0x3ec04bcc	0.37557828
35	0x3f138dbb	0.5763814
36	0xbf1f757f	-0.6228866
37	0xbe529fa4	-0.2056871
38	0x3f5da75a	0.86583483
39	0xbf6e97ca	-0.9320036
40	0x3ef38530	0.47562551
41	0xbeeee07c	-0.46655643
42	0x3f656c1e	0.896181
43	0xbefd40c7	-0.49463484
44	0x3f7da660	0.99081993
45	0xbf2ca674	-0.6744149
46	0x3e8a44c8	0.270056
47	0x3e1672e9	0.14692272
48	0xbf19828b	-0.5996482
49	0xbf67d81c	-0.9056413
50	0x3f6bea4a	0.9215437
51	0xbe0b82fb	-0.13624184
52	0xbf26f4f5	-0.65217525
53	0x3ef63ed1	0.480948
54	0xbe8f6e44	-0.28013813
55	0x3f91e933	1.1399292
56	0xbb53475c	-0.0032238578
57	0x3f1f6ff9	0.6228023
58	0xbed7928a	-0.42103988
59	0x3f5b72d8	0.8572211
60	0x3e24ddcc	0.16100234
61	0x3f907579	1.128585
62	0x3f459bca	0.7719084
63	0x3f28457f	0.6573104

l2.bias f4 [8]
0	0x3e0ca3af	0.13734315
1	0xbd1a74b4	-0.037708953
2	0xbc608941	-0.013704599
3	0xbe846541	-0.258585
4	0x3f0ebfce	0.5576142
5	0x3eed7dba	0.46384984
6	0x3f493ee1	0.7861157
7	0x3e4fbfb5	0.20287974

l3.weight f4 [8, 8]
0	0xbd32f224	-0.043687955
1	0x3e0648fc	0.13113779
2	0xbf9b185e	-1.2116811
3	0x3e8efed2	0.27928787
4	0xbeb017d9	-0.34393194
5	0x3f39d4e6	0.7259048
6	0xbeec5f7b	-0.46166596
7	0xbf588870	-0.8458319
8	0x3ee54c33	0.44784698
9	0x3ed5e1d2	0.4177385
10	0xbe3fad45	-0.18718441
11	0xbe0cd936	-0.13754734
12	0xbec392cb	-0.38197932
13	0xbe3158ef	-0.17319082
14	0xbfa2ab1f	-1.2708472
15	0x3dae624f	0.085148446
16	0x3e7a897c	0.24466509
17	0x3db08234	0.08618584
18	0x3eac1457	0.33609268
19	0x3e8519e2	0.2599631
20	0xbf6c2769	-0.92247635
21	0xbf0e6ae7	-0.5563187
22	0xbb565427	-0.0032703967
23	0xbc393316	-0.011303684
24	0xbf439333	-0.76396483
25	0x3f0dfb4f	0.5546159
26	0xbe8a0bb6	-0.2696206
27	0x3e00ed35	0.12590487
28	0x3e9b9f7a	0.30395108
29	0xbf88e856	-1.0695903
30	0xbf91fff8	-1.140624
31	0x3e619837	0.22030722
32	0xbf6739fc	-0.9032285
33	0x3eccce19	0.4000099
34	0xbf95ae40	-1.1693802
35	0xbe778eb4	-0.2417553
36	0xbf1d35d9	-0.6141029
37	0xbe85c786	-0.26128787
38	0x3e1705f7	0.14748369
39	0x3f234eee	0.6379231
40	0x3e14e326	0.14539775
41	0xbeb94c0d	-0.36190835
42	0xbf04d6de	-0.5189036
43	0xbdb7ebac	-0.08980498
44	0xbecf42bd	-0.40480605
45	0x3e893ca1	0.2680407
46	0x3f5c3877	0.8602366
47	0xbf238857	-0.63879913
48	0x3efa3df0	0.4887538
49	0xbf598d9f	-0.8498172
50	0x3e14c7c6	0.14529333
51	0xbe450fc0	-0.1924429
52	0x3ebff8fa	0.37494642
53	0xbdd07835	-0.10179178
54	0xbe39411e	-0.18091246
55	0xbf050e71	-0.5197516
56	0xbf185ba6	-0.59514844
57	0xbed341cf	-0.41261145
58	0x3e19313f	0.14960192
59	0x3961b8e0	0.00021526543
60	0x3dc44b2b	0.0958465
61	0xbf830704	-1.0236516
62	0xbf273a7b	-0.6532361
63	0x3ed407fc	0.41412342

l3.bias f4 [8]
0	0xbde2a356	-0.1106631
1	0xbea9cae8	-0.33162618
2	0xbdc32a1d	-0.09529517
3	0x3da6da1a	0.08147068
4	0xbdc9932a	-0.098425224
5	0xbd827a3e	-0.06370972
6	0xbd84d2b2	-0.064854994
7	0x3e6aabe6	0.22917137
