flask-server/chatbot/data.pth (torch, 13034 bytes, 6 tensors)

l1.weight f4 [8, 221]
0	0x3e47de17	0.19518314
1	0x3e8471bf	0.2586803
2	0x3e77e86f	0.2420976
3	0x3eb78b49	0.35848454
4	0x3de86db3	0.113490485
5	0x3e317910	0.17331338
6	0xbdbdb197	-0.09262388
7	0xbc88cb26	-0.016698431
8	0x3e45c7d4	0.1931451
9	0x3e6c32ad	0.23066206
10	0x3e15c0f8	0.14624393
11	0xbe898d47	-0.268656
12	0x3e22154a	0.15828434
13	0x3e5fc4b4	0.2185238
14	0x3e99e064	0.3005401
15	0x3dd38173	0.10327425
16	0x3e29153a	0.16512004
17	0xbcbe784e	-0.023250725
18	0xbd166da3	-0.03672565
19	0xbe04d284	-0.1297093
20	0x3e2c3f79	0.16821088
21	0xbecb9e4d	-0.3976921
22	0x3e5e8cfd	0.2173347
23	0x3e5be5b7	0.21474348
24	0xbe16e60b	-0.14736192
25	0x3e091e68	0.13390505
26	0x3e7610f6	0.24029908
27	0xbc690d09	-0.014224299
28	0xbd3bcd8e	-0.04585033
29	0x3decf9e0	0.115710974
30	0x3e627ee7	0.22118722
31	0xbe6d07ab	-0.23147456
32	0x3f0378f5	0.5135644
33	0x3e07c5df	0.13259076
34	0x3e2da213	0.16956358
35	0x3d73d029	0.05952469
36	0xbe4664e2	-0.19374421
37	0x3e0b7a96	0.13620982
38	0x3e147e30	0.14501262
39	0x3d9de5a0	0.07709813
40	0x3e886a38	0.26643538
41	0xbd646ce7	-0.05576792
42	0xbe0841d3	-0.1330636
43	0x3e26200d	0.16223164
44	0x3e3a4b26	0.1819273
45	0x3d95c478	0.07312864
46	0xbe8834e4	-0.26602852
47	0xbe361544	-0.1778155
48	0x3e0fb6fd	0.14034648
49	0x3e128893	0.14309911
50	0x3d89fbdd	0.06737492
51	0xbeb510c8	-0.35364366
52	0xbea93740	-0.33049965
53	0x3e7ca991	0.2467406
54	0x3e32b5c3	0.17452149
55	0x3e78ccf3	0.24296932
56	0x3e16a095	0.14709695
57	0xbd08a734	-0.033362582
58	0x3e5db715	0.21651872
59	0xbceb2e31	-0.02870855
60	0x39657327	0.0002188204
61	0x3e2dcc2b	0.16972415
62	0xbe23e7ed	-0.16006441
63	0x3c679542	0.014134707
64	0x3e63efd7	0.2225946
65	0x3e79b525	0.24385507
66	0xbe89cc71	-0.2691379
67	0x3bb3d43f	0.005487948
68	0xbe193cea	-0.14964643
69	0x3d84a4d7	0.06476753
70	0x3dacf58d	0.084452726
71	0x3dc20e69	0.09475405
72	0x3e2fea4f	0.17179225
73	0xbdd4aa74	-0.10384074
74	0x3e2367e3	0.15957598
75	0x3e257ae7	0.16160165
76	0x3e34e5c3	0.17665772
77	0xbe66d13c	-0.22540754
78	0x3e904195	0.28175035
79	0x3de723ae	0.11286102
80	0x3d4b5384	0.049640194
81	0x3c98181c	0.018566184
82	0x3e8a1294	0.269673
83	0x3e0dc708	0.13845456
84	0xbd0a69ff	-0.033792492
85	0xbcf5e533	-0.030016517
86	0x3df683fd	0.120368935
87	0x3df9bf51	0.12194694
88	0xbcdcf576	-0.026972514
89	0x3e41a297	0.1890968
90	0x3ddcecd2	0.107873574
91	0x3d5a4fc5	0.05329873
92	0x3eaa87d8	0.33306766
93	0xbea636e4	-0.32463753
94	0x3d8a3744	0.06748822
95	0x3e19f8e6	0.15036353
96	0xbe37c365	-0.17945631
97	0xbbbb1a1e	-0.0057099005
98	0xbd7fc652	-0.062444992
99	0x3e3473e2	0.17622331
100	0x3e38a7ed	0.18032809
101	0x3d3bd826	0.045860432
102	0x3ebb9da1	0.366437
103	0xbe40fe1f	-0.1884694
104	0x3e75828c	0.23975581
105	0x3ea22c93	0.31674632
106	0x3e7c22ac	0.24622601
107	0x3e377459	0.17915477
108	0x3d8c6785	0.06855682
109	0x3e920e1d	0.28526393
110	0x3e09b727	0.13448773
111	0x3e41c7bb	0.18923847
112	0xbebc8659	-0.3682125
113	0x3de6a4ff	0.11261939
114	0xbdec43b9	-0.115363546
115	0x3bacca3d	0.005273132
116	0xbe6ac3d3	-0.22926264
117	0x3e3a9109	0.18219389
118	0xbe4cb0b2	-0.19989279
119	0x3dd28c23	0.10280635
120	0x3e258624	0.16164452
121	0xbd153768	-0.036429793
122	0x3e671ca1	0.22569515
123	0x3e407fa3	0.1879869
124	0xbc957e09	-0.018248575
125	0xbe0974a2	-0.13423398
126	0x3decda7d	0.11565111
127	0x3e786d29	0.24260391
128	0x3e73d9e8	0.23813593
129	0x3e6a1951	0.2286122
130	0x3e39cf78	0.1814555
131	0x3c3bd17f	0.011463522
132	0x3d9c1573	0.076212786
133	0x3e234060	0.15942526
134	0xbc6c0389	-0.01440514
135	0x3da38454	0.07984224
136	0xbe9493b8	-0.2901895
137	0x3e9dbd6e	0.30808586
138	0x3efdb760	0.49553967
139	0x3e63b512	0.22237042
140	0x3dce59b1	0.10075701
141	0x3d589648	0.052877694
142	0x3e67ebf0	0.22648597
143	0x3e3d2b7d	0.1847362
144	0x3e25d7b7	0.1619557
145	0xbead9da7	-0.33909342
146	0x3ddcc52e	0.107797965
147	0x3e37be3d	0.17943664
148	0x3caf20d2	0.021377955
149	0x3ca9d866	0.02073307
150	0x3e4393b6	0.19099316
151	0x3e776abd	0.24161811
152	0xbe855592	-0.26041847
153	0x3df96682	0.12177755
154	0xbc144c66	-0.009051418
155	0x3e79689c	0.24356312
156	0x3e607fed	0.219238
157	0xbcd767f9	-0.026294695
158	0x3c544739	0.012956434
159	0xbe3c030b	-0.18360536
160	0x3e7fe1ab	0.24988429
161	0xbe672309	-0.22571959
162	0x3e452c61	0.1925521
163	0x3e0876f9	0.13326634
164	0xbe3529e3	-0.1769176
165	0xbd0add96	-0.033902727
166	0x3e16b989	0.14719214
167	0x3e0bdd29	0.13658585
168	0x3de19aac	0.110158294
169	0x3e43b85b	0.19113295
170	0x3dd8f6d3	0.10593953
171	0xbd7dab1f	-0.061930772
172	0xbe744414	-0.23854095
173	0x3dcb42b4	0.09924832
174	0xbe099898	-0.13437116
175	0x3d74d77a	0.059775807
176	0x3e37a417	0.17933689
177	0x3e10e9f4	0.14151746
178	0x3e4b8745	0.1987582
179	0x3e7cabfc	0.24674982
180	0xbe65a62d	-0.22426672
181	0x3dcf93fd	0.101356484
182	0x3e03d44a	0.1287395
183	0x3e4795d1	0.19490744
184	0x3c27eaf5	0.010248889
185	0x3e884be6	0.26620406
186	0x3e561551	0.20906569
187	0x3e0b310f	0.13592933
188	0x3e37455e	0.17897555
189	0xbea61235	-0.32435766
190	0xbe0f9de0	-0.14025068
191	0x3e269685	0.16268356
192	0xbe260020	-0.16210985
193	0x3e4c7fe8	0.19970667
194	0x3d48efae	0.0490567
195	0x3e5654f9	0.20930852
196	0x3eb5f520	0.35538578
197	0x3e26573b	0.16244213
198	0x3d4e509c	0.050369844
199	0x3e4d35e0	0.20040083
200	0xbc1e9563	-0.009679171
201	0x3eca2d52	0.39487702
202	0x3e43a876	0.19107231
203	0x3ebf2fa1	0.37341025
204	0x3e6c27e5	0.23062094
205	0xbc8781fa	-0.01654147
206	0x3e40cb37	0.1882752
207	0x3e7c4ebf	0.24639414
208	0x3e1107be	0.1416311
209	0x3eac7d7d	0.3368949
210	0x3e23f1f5	0.16010268
211	0x3dd38c57	0.10329502
212	0xbe0cae0e	-0.13738272
213	0x3e9b467f	0.30327222
214	0x3e8478ca	0.25873405
215	0x3e4974df	0.19673489
216	0xbe26f18b	-0.16303079
217	0x3ee9503d	0.4556903
218	0xbe499be7	-0.19688378
219	0xbe7196ba	-0.23592654
220	0x3e171cff	0.14757155
221	0xbd7ecaf7	-0.06220528
222	0x3d9d6c71	0.07686699
223	0xbded218c	-0.11578664
224	0x3bb566b3	0.0055359243
225	0xbdc6f34b	-0.09714373
226	0xbe017a9d	-0.1264443
227	0x3e5a24fd	0.21303172
228	0x3eb50cfd	0.35361472
229	0x3e5f8b0f	0.2183039
230	0xbe5e95ba	-0.21736804
231	0xbd5e8702	-0.054327972
232	0x3e12e1ee	0.14343998
233	0xbe11448b	-0.14186303
234	0x3e871e65	0.26390377
235	0x3e9c106c	0.3048128
236	0x3cb8784a	0.022518296
237	0x3e3c9d46	0.1841937
238	0xbd300081	-0.04296923
239	0x3e51c18f	0.20483993
240	0x3db373e6	0.0876234
241	0xbe91ca56	-0.28474683
242	0x3eeef329	0.4666989
243	0x3d49af40	0.049239397
244	0x3e21bae2	0.15793946
245	0x3d8c6779	0.06855673
246	0x3d6d878f	0.057990607
247	0x3e4f7f35	0.2026337
248	0x3e36ec22	0.17863515
249	0xbe93d022	-0.2886973
250	0x3d667186	0.056260608
251	0x3d552999	0.052041624
252	0x3d09659e	0.033544175
253	0x3db53640	0.08848238
254	0x3ec1271b	0.37725148
255	0x3e22a178	0.15881908

l1.bias f4 [8]
0	0x3edcb8bd	0.43109694
1	0x3ef8c613	0.4858862
2	0x3e7b2631	0.24526288
3	0x3f2f2c6b	0.6842715
4	0x3e723198	0.23651731
5	0x3eab817d	0.3349723
6	0x3ed14153	0.4087015
7	0x3edb3c17	0.42819282

l2.weight f4 [8, 8]
0	0x3f19e36b	0.6011264
1	0x3c9f4965	0.019444177
2	0x3f4f1e12	0.8090526
3	0xbf735045	-0.95044357
4	0x3f5d6a6f	0.8649053
5	0x3ed6de92	0.41966683
6	0x3f275610	0.65365696
7	0xbbf20679	-0.0073860255
8	0x3f2a49bd	0.66518766
9	0x3e8a5059	0.27014425
10	0xbe1eb9f1	-0.15500619
11	0xbe9050b6	-0.28186578
12	0xbe9a89d0	-0.30183268
13	0x3f26cced	0.6515644
14	0xbf138282	-0.57621014
15	0x3ee59468	0.44839787
16	0xbf3ecd0e	-0.7453164
17	0x3f8fe251	1.1240941
18	0x3f34129a	0.70340884
19	0x3ea76e27	0.32701227
20	0x3ec45e6d	0.3835329
21	0xbcb6e277	-0.022324784
22	0xbdaef229	-0.08542282
23	0x3f8eb2e4	1.1148343
24	0x3f651755	0.89488727
25	0x3e88d24b	0.2672294
26	0xbe1e9cf8	-0.15489566
27	0xbdc73eba	-0.09728761
28	0xbe79c9a2	-0.24393323
29	0x3f818120	1.0117531
30	0x3d9f9fdf	0.07794165
31	0xbf2f0448	-0.6836591
32	0x3f41e680	0.7574234
33	0x3db794dc	0.089639395
34	0x3ef6fd4c	0.48240125
35	0x3c986aef	0.018605677
36	0x3f04c98e	0.5187005
37	0xbe9208d9	-0.28522375
38	0x3f6e70df	0.9314098
39	0xbf68fe4f	-0.91013044
40	0x3ed4c863	0.41559133
41	0x3f22b84d	0.6356247
42	0xbf0800be	-0.5312613
43	0x3f7ac105	0.97950774
44	0xbf1cf8fe	-0.6131743
45	0xbf5c2590	-0.85994816
46	0x3e5f6164	0.21814495
47	0x3f091598	0.53548574
48	0xbcc0ee7e	-0.023551222
49	0x3f42eb5f	0.761404
50	0xbeec8c35	-0.4620072
51	0x3f1e5cc1	0.6186028
52	0xbdad7c62	-0.0847099
53	0x3f046a5d	0.517248
54	0xbf168906	-0.5880283
55	0x3f0ff5b9	0.5623432
56	0x3f173daa	0.59078467
57	0x3f3aa3ac	0.72905993
58	0xbebd2340	-0.36940956
59	0x3f25c3af	0.64751714
60	0xbf37e1be	-0.7182883
61	0xbf011857	-0.50427765
62	0x3f3c25ff	0.7349548
63	0xbe198363	-0.14991526

l2.bias f4 [8]
0	0xbc243993	-0.010023492
1	0x3ee37cf7	0.44431278
2	0xbe79be48	-0.24388993
3	0x3edd3417	0.43203804
4	0x3e2576b0	0.16158557
5	0x3f2e62eb	0.68119687
6	0x3e8516f9	0.2599409
7	0x3e9db508	0.30802178

l3.weight f4 [8, 8]
0	0xbf3d4b8d	-0.73943406
1	0x3f050a2d	0.5196865
2	0x3eccf7b4	0.40032732
3	0xbf236956	-0.63832605
4	0xbf75bb96	-0.9598936
5	0x3e9fc26a	0.31203014
6	0x3e89fcb4	0.2695061
7	0xbfad967a	-1.3561547
8	0xbc84102d	-0.016120994
9	0x3eea6d62	0.45786577
10	0xbe1466fa	-0.14492407
11	0x3ec91b16	0.39278477
12	0xbf4c93d4	-0.7991307
13	0xbf180d44	-0.5939524
14	0x3e97a38f	0.29616973
15	0xbf730b5c	-0.9493921
16	0x3ecd0938	0.40046096
17	0xbf420c45	-0.7579997
18	0x3ee84d91	0.45371678
19	0xbf0bad61	-0.5456143
20	0xbe784895	-0.24246438
21	0xbf81c81e	-1.0139196
22	0xbe0d1a82	-0.13779643
23	0xbf837927	-1.0271348
24	0x3f0b1e61	0.5434323
25	0xbe8c81b5	-0.2744271
26	0xbf722545	-0.9458812
27	0x3efbc2f7	0.49172184
28	0x3f180111	0.5937663
29	0xbf48431b	-0.78227395
30	0xbf8217bd	-1.0163494
31	0xbf53c1ea	-0.82717764
32	0xbf604090	-0.87598515
33	0x3f0c30d9	0.54762036
34	0xbf924389	-1.142686
35	0x3f0e3a99	0.5555816
36	0xbf13b092	-0.576913
37	0x3ed0be9e	0.4077043
38	0x3e8f4aaf	0.27986667
39	0x3dabf1b9	0.08395714
40	0xbf707473	-0.9392769
41	0xbe5d671d	-0.21621366
42	0x3d53da56	0.051721893
43	0xbf498a64	-0.7872679
44	0xbf915dd1	-1.1356755
45	0x3f27639f	0.65386385
46	0x3dfc9524	0.12333134
47	0x3f138ec5	0.57639724
48	0xbf01c7b2	-0.50695336
49	0xbf62a2e4	-0.885298
50	0xbf97c141	-1.1855851
51	0x3e32e1ef	0.17469
52	0x3ef4be06	0.47801226
53	0x3eea6980	0.45783615
54	0xbecf684f	-0.4050927
55	0x3f327f12	0.69725144
56	0x3edeb466	0.43497008
57	0x3da5f281	0.081028946
58	0xbdcd68e9	-0.10029776
59	0xbecd72a9	-0.4012654
60	0x3e048c02	0.12944034
61	0x3d900f68	0.070341885
62	0xbf9332c1	-1.1499864
63	0xbe1ecae4	-0.15507084

l3.bias f4 [8]
0	0xbe949b34	-0.2902466
1	0xbe277f93	-0.1635726
2	0xbe34f794	-0.17672569
3	0xbd19630d	-0.037447978
4	0x3e69608c	0.22790736
5	0x3e73dcde	0.23814723
6	0xbdfff07e	-0.12497042
7	0xbeae9fd5	-0.34106317
