flask-server/data.pth (torch, 10090 bytes, 6 tensors)

l1.weight f4 [8, 161]
00000000: 7099 c0bc e45e c03c 94a8 853d 2b23 55be
00000010: 1413 dabc 1d9b 383e 9379 073e 01d5 863e
00000020: b9de b6bd 834e 0b3e f6c3 903d 94e4 423e
00000030: 957d 91bc 51e6 c53d 09e5 1f3b 4ef7 753c
00000040: 7ff9 ebbc 6906 ee3e eaa4 cf3c 4ca5 9fbc
00000050: 08a2 26bd 1de8 85bd 2030 49bd 1860 cebd
00000060: 6b70 623e d2ca c1bd f9af 89bd b265 debe
00000070: 4efa 873e 0e41 933c d611 dcbd 6fe4 16bd
00000080: 2603 f03c cf07 c7bc 6d81 f23d 0ce6 81bd
00000090: 8713 283d 58f3 e0bd 651c 503e de8d 12bd
000000a0: bf5b 2dbd 3561 ad3e 0bbe 923e 1295 673d
000000b0: bd8f 423e b375 823d 1df2 02be 920d 533e
000000c0: 5686 96bc dfe0 853e b67b 9c3c 2b28 1a3c
000000d0: 0b36 d9bc 1e91 113d 6c90 b73b 68f5 0abe
000000e0: 4ca7 d03d 8604 fdbc c932 22bc ee48 183e
000000f0: fa2e 193d ebbb bb3b c154 8fbd 1958 2d3e
00000100: d4c4 9dbd 6378 473e 85f8 333d 97b5 853e
00000110: 5cf3 1c3e cf01 b03d 4859 71be 7aab 3f3d
00000120: 0f9c 983d e52e 1cbe 5deb 54be 02bf 8dbc
00000130: f4d5 3cbd d1b7 4fbe 59ad c83e 013b 23be
00000140: 9234 7a39 9c51 3f3c cbb0 8bbd 00e2 ccbd
00000150: 1cfc 83bd a090 f8bc c0c9 e5bd 3ec3 17bc
00000160: 8d9c 633d 5bb7 0c3e 83be 3dbe c121 b7bd
00000170: e5ef 583e 2c6c 9ebd a26a f73c 5185 b33d
00000180: fd67 ebbe a954 06be 390e 2ebd c4c9 fc3c
00000190: c2aa 0cbe 85e9 703e 8bbc 99bd 3b1f 663d
000001a0: 4bca 793c d9fc 68bc ad81 cfbc be31 b3bd
000001b0: 0610 b03e d191 e03b c5c6 c3bc d8ae c33b
000001c0: 6763 bebd c5c5 27bd c080 2cbd 0d32 8abb
000001d0: 4b56 563e b93b 32b9 5a2b 683d 7c4b b63d
000001e0: 8e50 743e 6870 c3bd cdd6 c2bd a6ff 8ebd
000001f0: 8345 203d 46fd 33bb a248 383d faba 7e3e
00000200: 0d16 2cbc e385 56bd de16 52bd b248 aebc
00000210: 711b d7bd c215 81bd 651a 2dbe 1d72 5d3e
00000220: 36ea 07be 9036 98bd 2055 7b3e 615f e6bd
00000230: 2ffd 17bd 7aa8 2a3c dc08 45bc e450 893a
00000240: 00a2 443d fe76 82bc 127e 743e f1ba 14be
00000250: 683c 17bd 6dff 8b3d 70ca d93d 612a 6bbd
00000260: 1f77 87bd 51a1 173d d15c b3bd 85f4 1ebc
00000270: 1f89 133e 5acd 9cbe 54b2 21bb 577c 04bd
00000280: 14bf 04be 80fb 9cbd 9661 8abc 8509 613e
00000290: 494f 433d 92e6 99bd bf17 ac3e b171 f33d
000002a0: a7b6 3f3e 6e28 a93e 6cdc 983e 7248 a4bd
000002b0: fe50 a03d efa5 19bc 0a3d bd3d 2626 c33d
000002c0: 416c 4e3e a297 d6bd baa2 863e 8e0b 5fbd
000002d0: df62 86bd 9c61 da3d 8762 503e b6a0 a6bd
000002e0: d4cb bfbd bf9a af3d a074 5c3d 2798 4c3e
000002f0: 1d85 bbbe f117 1c3e 5dad 603c 6a17 4d3d
00000300: b7c3 223e 333b a1bd 1ae4 51bd d20e 2e3d
00000310: 1234 143e 66db 913e d64b 743e 28b8 af3e
00000320: 62a6 0cbd 02aa 2f3e 4c8a f93d 94de 033e
00000330: 6aa4 01be 9961 bf3e 7b0e 0dbe adec 2abe
00000340: 4c91 ff3d a2df 0e3d 645f 163e 4655 51bd
00000350: 9591 483e 3b2a f83d 4431 0c3e 1cce 953e
00000360: a6fe e4bd 276c 4e3e 6943 8c3e c712 71bd
00000370: 9f41 7d3e 4031 53bd 3652 8bbd 12da b93d
00000380: 2909 963e ee3d f0bd 1ad2 933e c41f 71bc
00000390: ac44 d5bd 90ad d33d fc87 323e 5424 3abe
000003a0: 95a5 6c3e ba63 813d d058 143d 1020 66be
000003b0: f477 473e c04b c3bd 505c 13be bdcf 4d3e
000003c0: f0c2 533c 65fe 623e e0f9 f2bb 12d3 2b3e
000003d0: 1bc7 96bd 9ac4 043e a6e1 ccbc 4264 e23d
000003e0: d9a0 a13c a794 263d 0010 c83e caea 243e
000003f0: 6549 353e 626f 303e 806a 3f3d 4e5d 673e
-0.023510665 0.023482747 0.06526294 -0.20814197 -0.026620425 0.18027921 0.1322997 0.26334384
-0.089292 0.13604169 0.070686266 0.19032508 -0.017760077 0.0966307 0.002439799 0.015012575
-0.028805492 0.46489266 0.025347192 -0.019488 -0.04068187 -0.06538413 -0.04911816 -0.10076922
0.22113197 -0.09462513 -0.06723017 -0.43436962 0.26558155 0.017975356 -0.107455894 -0.036838945
0.029298376 -0.024295716 0.11841092 -0.06342706 0.041034248 -0.10983914 0.20323332 -0.035779826
-0.042323824 0.33863226 0.28660616 0.05653865 0.19000144 0.063701056 -0.12787671 0.20610645
-0.018374603 0.26148126 0.019101959 0.009408991 -0.026515028 0.035538785 0.005601933 -0.13570178
0.10188159 -0.030885946 -0.009899803 0.1487157 0.037398316 0.0057291887 -0.069985874 0.16928138
-0.077035576 0.19479518 0.04393818 0.26115105 0.15327209 0.08594095 -0.23569214 0.046794392
0.07451641 -0.15252264 -0.20792909 -0.017302994 -0.04610248 -0.20284964 0.39194754 -0.15940477
0.00023861442 0.011677172 -0.0682083 -0.100040436 -0.064445704 -0.0303424 -0.112201214 -0.009262858
0.05556922 0.1374182 -0.18529706 -0.08941985 0.21185263 -0.07735476 0.030202214 0.087656625
-0.45977774 -0.13118233 -0.042494033 0.030857928 -0.13737014 0.2352658 -0.07506665 0.056182127
0.015245984 -0.01422044 -0.025330389 -0.08749722 0.34387225 0.00685332 -0.023898492 0.0059717707
-0.09296303 -0.040960092 -0.042114973 -0.0042173923 0.20931356 -0.00016997651 0.05668197 0.08901116
0.23858854 -0.09542924 -0.09513626 -0.06982355 0.03912879 -0.0027464195 0.044991143 0.24876013
-0.010503304 -0.052373778 -0.05129134 -0.021274898 -0.10503281 -0.06302978 -0.169046 0.21625562
-0.13272938 -0.07432282 0.24544191 -0.11248661 -0.03710669 0.0104161445 -0.012026038 0.0010476378
0.048006058 -0.01592588 0.23876217 -0.14524437 -0.036922842 0.06835828 0.10634315 -0.057413463
-0.066145174 0.037019078 -0.08757938 -0.009701853 0.14407776 -0.3062542 -0.0024672942 -0.032345142
-0.12963516 -0.07665157 -0.016892236 0.21976288 0.047683034 -0.07514681 0.33611867 0.11886919
0.1872202 0.33038658 0.2985567 -0.0802163 0.07827948 -0.009377941 0.09240158 0.095287606
0.20158483 -0.104781404 0.26296026 -0.05445438 -0.06561827 0.10663149 0.20350085 -0.08136122
-0.09365049 0.08574437 0.05382216 0.19979917 -0.36624995 0.15243508 0.013713208 0.050071158
0.15894972 -0.078726195 -0.051242925 0.042494603 0.14472988 0.284877 0.23857054 0.34320188
-0.034338363 0.17154697 0.12184581 0.12877876 -0.12660375 0.3737915 -0.13775055 -0.16691847
0.12478885 0.03488124 0.14684826 -0.051106714 0.19586785 0.1211743 0.13690668 0.2925881
-0.11181383 0.20158444 0.2739518 -0.058855798 0.24732064 -0.05156064 -0.0680279 0.09074797
0.29303864 -0.11730562 0.28871232 -0.014717046 -0.10413489 0.10335839 0.17434686 -0.1817792
0.2311004 0.063178495 0.03621751 -0.22473168 0.19479352 -0.095359325 -0.14390683 0.20098777
0.012924895 0.22167356 -0.0074150413 0.16779736 -0.07362195 0.12965623 -0.025009941 0.11054279
0.019730018 0.04066911 0.39074707 0.1610519 0.17703779 0.17229989 0.046732426 0.22594187

l1.bias f4 [8]
00000000: fa0f f33e 1df1 eb3e 3aee 8c3e e1bf 983e
00000010: 290f 573e 51b3 cd3e 02bf d83e 6417 133f
0.47473127 0.46082392 0.27525502 0.29833892 0.21001877 0.4017587 0.42333227 0.57457566

l2.weight f4 [8, 8]
00000000: 6393 303f d5d5 163e 0d91 363e 146f 18bf
00000010: dcf2 2abe 05f6 db3e 5ba1 443f 4f6c 323f
00000020: 14a1 733f a58f 3e3f 13ac c23e ed96 02bf
00000030: 3651 25bf 608e 02be ea84 1e3f 3453 6b3f
00000040: e0a1 b6be c976 f33e 396f 193f e842 98bd
00000050: 164b 193f 2d5d 553e efe1 953e 154c 6bbe
00000060: fa68 f5bd 37f3 78be 38e9 613e d265 4fbe
00000070: f73a e3bd 5058 ba3d e8d3 35be 7c47 46bc
00000080: b84f 87be e6fc 143f 044a a5bd c30e 023f
00000090: db71 043f e3c6 363f 48ac f8be 26b8 983e
000000a0: 41b6 323e c702 1a3f 926a 66be bf7f a1bc
000000b0: 5b4e af3e 09db d6be 0204 003f 6f41 023f
000000c0: b405 b8be 068b 01bf 50e7 243f 3675 55be
000000d0: 5c61 243f f5f4 6c3e 6ff9 023f 4475 16bf
000000e0: 92f0 c7be 72b8 443f 1f0a edbe 6d97 4a3f
000000f0: f260 2b3e 65b6 3a3f 7209 0dbf 4edd 063f
0.68974894 0.14730008 0.1782877 -0.5954449 -0.16694206 0.42961136 0.7680871 0.69696516
0.9516766 0.74437934 0.38021907 -0.51011544 -0.64577043 -0.12749624 0.6192156 0.9192383
-0.35670376 0.47551563 0.5993534 -0.07434636 0.598802 0.20836325 0.29273936 -0.22978242
-0.11982913 -0.24311529 0.22061622 -0.20253685 -0.11095231 0.090988755 -0.17756617 -0.012102004
-0.26428008 0.5819839 -0.08070758 0.50803775 0.5173623 0.7139723 -0.4856894 0.29827994
0.17452337 0.6016049 -0.22501591 -0.019714234 0.34239468 -0.41963986 0.50006115 0.50881094
-0.3594185 -0.5060276 0.64415455 -0.20845494 0.6421106 0.23140319 0.51161855 -0.58772683
-0.39050728 0.7684394 -0.46296784 0.7913731 0.167362 0.7293456 -0.5509254 0.52681434

l2.bias f4 [8]
00000000: 6bff b93e 48cd 053f a5c4 21be 337c aabd
00000010: aff1 9bbc e932 c9bd aaf9 483e 1ad4 243e
0.3632768 0.5226636 -0.1579767 -0.0832447 -0.019036142 -0.098241635 0.1962649 0.16096535

l3.weight f4 [5, 8]
00000000: 1d06 12bf 6a68 4abf 0ffe f93e 7a00 363e
00000010: 9fc6 c63e 11de f73d 6dbb 0cbf 0c3b 733d
00000020: 3d07 903d 0019 85be 0d3a 363f eb94 54be
00000030: e42b 1bbf 9965 36bf dece 173f c4bd 7abf
00000040: 739b 123c 8bf3 a53e b892 80bf f20b afbd
00000050: 9e98 26bd 12d4 a0bd 7a7c ddbe 3017 c23e
00000060: ece0 ae3e 22e6 2e3f a301 bbbe 9e33 963e
00000070: c5f4 84bf 4996 293f 465c 07bf dfb0 95bf
00000080: 4d93 19bf f8f2 e4be ffff afbe 46cf b4be
00000090: b4c4 2d3e ec30 26bf d1c5 3bbe d77d a53d
-0.5704058 -0.79065573 0.48826644 0.1777362 0.3882341 0.12102903 -0.5497349 0.059382483
0.070326306 -0.25995636 0.7118233 -0.20759933 -0.60613847 -0.71248776 0.5930003 -0.9794581
0.008948195 0.3241237 -1.0044775 -0.085472 -0.04067289 -0.07852949 -0.4325903 0.37908316
0.34155977 0.68319905 -0.36524686 0.29336256 -1.0387198 0.6624494 -0.52875173 -1.1694602
-0.5999039 -0.4471662 -0.34374997 -0.35314387 0.16969568 -0.649184 -0.1833718 0.08080643

l3.bias f4 [5]
00000000: 5c94 62be 7691 5abd d875 88be 1f98 3f3d
00000010: 97c3 123f
-0.22126907 -0.05336138 -0.26652408 0.046775933 0.57329696
